// -----// IR Dump After LinalgGeneralization (linalg-generalize-named-ops) //----- //
func.func @MTTKRP.A.0.main(%arg0: tensor<128x128x128xf32, #sparse_tensor.encoding<{ lvlTypes = [ "compressed", "compressed", "compressed" ] }>>, %arg1: tensor<128x32xf32, #sparse_tensor.encoding<{ lvlTypes = [ "dense", "dense" ] }>>, %arg2: tensor<128x32xf32, #sparse_tensor.encoding<{ lvlTypes = [ "dense", "dense" ] }>>) -> tensor<128x32xf32, #sparse_tensor.encoding<{ lvlTypes = [ "dense", "dense" ] }>> attributes {llvm.emit_c_interface} {
  %0 = bufferization.alloc_tensor() : tensor<128x128x32xf32, #sparse_tensor.encoding<{ lvlTypes = [ "compressed", "compressed", "dense" ] }>>
  %1 = linalg.generic {indexing_maps = [affine_map<(d0, d1, d2, d3) -> (d0, d2, d3)>, affine_map<(d0, d1, d2, d3) -> (d3, d1)>, affine_map<(d0, d1, d2, d3) -> (d0, d2, d1)>], iterator_types = ["parallel", "parallel", "parallel", "reduction"]} ins(%arg0, %arg1 : tensor<128x128x128xf32, #sparse_tensor.encoding<{ lvlTypes = [ "compressed", "compressed", "compressed" ] }>>, tensor<128x32xf32, #sparse_tensor.encoding<{ lvlTypes = [ "dense", "dense" ] }>>) outs(%0 : tensor<128x128x32xf32, #sparse_tensor.encoding<{ lvlTypes = [ "compressed", "compressed", "dense" ] }>>) {
  ^bb0(%in: f32, %in_0: f32, %out: f32):
    %4 = arith.mulf %in, %in_0 : f32
    %5 = arith.addf %out, %4 : f32
    linalg.yield %5 : f32
  } -> tensor<128x128x32xf32, #sparse_tensor.encoding<{ lvlTypes = [ "compressed", "compressed", "dense" ] }>>
  %2 = bufferization.alloc_tensor() : tensor<128x32xf32, #sparse_tensor.encoding<{ lvlTypes = [ "dense", "dense" ] }>>
  %3 = linalg.generic {indexing_maps = [affine_map<(d0, d1, d2) -> (d0, d2, d1)>, affine_map<(d0, d1, d2) -> (d2, d1)>, affine_map<(d0, d1, d2) -> (d0, d1)>], iterator_types = ["parallel", "parallel", "reduction"]} ins(%1, %arg2 : tensor<128x128x32xf32, #sparse_tensor.encoding<{ lvlTypes = [ "compressed", "compressed", "dense" ] }>>, tensor<128x32xf32, #sparse_tensor.encoding<{ lvlTypes = [ "dense", "dense" ] }>>) outs(%2 : tensor<128x32xf32, #sparse_tensor.encoding<{ lvlTypes = [ "dense", "dense" ] }>>) {
  ^bb0(%in: f32, %in_0: f32, %out: f32):
    %4 = arith.mulf %in, %in_0 : f32
    %5 = arith.addf %out, %4 : f32
    linalg.yield %5 : f32
  } -> tensor<128x32xf32, #sparse_tensor.encoding<{ lvlTypes = [ "dense", "dense" ] }>>
  return %3 : tensor<128x32xf32, #sparse_tensor.encoding<{ lvlTypes = [ "dense", "dense" ] }>>
}

// -----// IR Dump After PreSparsificationRewrite (pre-sparsification-rewrite) //----- //
#map = affine_map<(d0, d1, d2, d3) -> (d0, d2, d3)>
#map1 = affine_map<(d0, d1, d2, d3) -> (d3, d1)>
#map2 = affine_map<(d0, d1, d2, d3) -> (d0, d2, d1)>
#map3 = affine_map<(d0, d1, d2) -> (d0, d2, d1)>
#map4 = affine_map<(d0, d1, d2) -> (d2, d1)>
#map5 = affine_map<(d0, d1, d2) -> (d0, d1)>
module {
  func.func @MTTKRP.A.0.main(%arg0: tensor<128x128x128xf32, #sparse_tensor.encoding<{ lvlTypes = [ "compressed", "compressed", "compressed" ] }>>, %arg1: tensor<128x32xf32, #sparse_tensor.encoding<{ lvlTypes = [ "dense", "dense" ] }>>, %arg2: tensor<128x32xf32, #sparse_tensor.encoding<{ lvlTypes = [ "dense", "dense" ] }>>) -> tensor<128x32xf32, #sparse_tensor.encoding<{ lvlTypes = [ "dense", "dense" ] }>> attributes {llvm.emit_c_interface} {
    %0 = bufferization.alloc_tensor() : tensor<128x128x32xf32, #sparse_tensor.encoding<{ lvlTypes = [ "compressed", "compressed", "dense" ] }>>
    %1 = linalg.generic {indexing_maps = [#map, #map1, #map2], iterator_types = ["parallel", "parallel", "parallel", "reduction"]} ins(%arg0, %arg1 : tensor<128x128x128xf32, #sparse_tensor.encoding<{ lvlTypes = [ "compressed", "compressed", "compressed" ] }>>, tensor<128x32xf32, #sparse_tensor.encoding<{ lvlTypes = [ "dense", "dense" ] }>>) outs(%0 : tensor<128x128x32xf32, #sparse_tensor.encoding<{ lvlTypes = [ "compressed", "compressed", "dense" ] }>>) {
    ^bb0(%in: f32, %in_0: f32, %out: f32):
      %4 = arith.mulf %in, %in_0 : f32
      %5 = arith.addf %out, %4 : f32
      linalg.yield %5 : f32
    } -> tensor<128x128x32xf32, #sparse_tensor.encoding<{ lvlTypes = [ "compressed", "compressed", "dense" ] }>>
    %2 = bufferization.alloc_tensor() : tensor<128x32xf32, #sparse_tensor.encoding<{ lvlTypes = [ "dense", "dense" ] }>>
    %3 = linalg.generic {indexing_maps = [#map3, #map4, #map5], iterator_types = ["parallel", "parallel", "reduction"]} ins(%1, %arg2 : tensor<128x128x32xf32, #sparse_tensor.encoding<{ lvlTypes = [ "compressed", "compressed", "dense" ] }>>, tensor<128x32xf32, #sparse_tensor.encoding<{ lvlTypes = [ "dense", "dense" ] }>>) outs(%2 : tensor<128x32xf32, #sparse_tensor.encoding<{ lvlTypes = [ "dense", "dense" ] }>>) {
    ^bb0(%in: f32, %in_0: f32, %out: f32):
      %4 = arith.mulf %in, %in_0 : f32
      %5 = arith.addf %out, %4 : f32
      linalg.yield %5 : f32
    } -> tensor<128x32xf32, #sparse_tensor.encoding<{ lvlTypes = [ "dense", "dense" ] }>>
    return %3 : tensor<128x32xf32, #sparse_tensor.encoding<{ lvlTypes = [ "dense", "dense" ] }>>
  }
}


// -----// IR Dump After EmptyTensorToAllocTensor (empty-tensor-to-alloc-tensor) //----- //
func.func @MTTKRP.A.0.main(%arg0: tensor<128x128x128xf32, #sparse_tensor.encoding<{ lvlTypes = [ "compressed", "compressed", "compressed" ] }>>, %arg1: tensor<128x32xf32, #sparse_tensor.encoding<{ lvlTypes = [ "dense", "dense" ] }>>, %arg2: tensor<128x32xf32, #sparse_tensor.encoding<{ lvlTypes = [ "dense", "dense" ] }>>) -> tensor<128x32xf32, #sparse_tensor.encoding<{ lvlTypes = [ "dense", "dense" ] }>> attributes {llvm.emit_c_interface} {
  %0 = bufferization.alloc_tensor() : tensor<128x128x32xf32, #sparse_tensor.encoding<{ lvlTypes = [ "compressed", "compressed", "dense" ] }>>
  %1 = linalg.generic {indexing_maps = [affine_map<(d0, d1, d2, d3) -> (d0, d2, d3)>, affine_map<(d0, d1, d2, d3) -> (d3, d1)>, affine_map<(d0, d1, d2, d3) -> (d0, d2, d1)>], iterator_types = ["parallel", "parallel", "parallel", "reduction"]} ins(%arg0, %arg1 : tensor<128x128x128xf32, #sparse_tensor.encoding<{ lvlTypes = [ "compressed", "compressed", "compressed" ] }>>, tensor<128x32xf32, #sparse_tensor.encoding<{ lvlTypes = [ "dense", "dense" ] }>>) outs(%0 : tensor<128x128x32xf32, #sparse_tensor.encoding<{ lvlTypes = [ "compressed", "compressed", "dense" ] }>>) {
  ^bb0(%in: f32, %in_0: f32, %out: f32):
    %4 = arith.mulf %in, %in_0 : f32
    %5 = arith.addf %out, %4 : f32
    linalg.yield %5 : f32
  } -> tensor<128x128x32xf32, #sparse_tensor.encoding<{ lvlTypes = [ "compressed", "compressed", "dense" ] }>>
  %2 = bufferization.alloc_tensor() : tensor<128x32xf32, #sparse_tensor.encoding<{ lvlTypes = [ "dense", "dense" ] }>>
  %3 = linalg.generic {indexing_maps = [affine_map<(d0, d1, d2) -> (d0, d2, d1)>, affine_map<(d0, d1, d2) -> (d2, d1)>, affine_map<(d0, d1, d2) -> (d0, d1)>], iterator_types = ["parallel", "parallel", "reduction"]} ins(%1, %arg2 : tensor<128x128x32xf32, #sparse_tensor.encoding<{ lvlTypes = [ "compressed", "compressed", "dense" ] }>>, tensor<128x32xf32, #sparse_tensor.encoding<{ lvlTypes = [ "dense", "dense" ] }>>) outs(%2 : tensor<128x32xf32, #sparse_tensor.encoding<{ lvlTypes = [ "dense", "dense" ] }>>) {
  ^bb0(%in: f32, %in_0: f32, %out: f32):
    %4 = arith.mulf %in, %in_0 : f32
    %5 = arith.addf %out, %4 : f32
    linalg.yield %5 : f32
  } -> tensor<128x32xf32, #sparse_tensor.encoding<{ lvlTypes = [ "dense", "dense" ] }>>
  return %3 : tensor<128x32xf32, #sparse_tensor.encoding<{ lvlTypes = [ "dense", "dense" ] }>>
}

// -----// IR Dump After SparsificationPass (sparsification) //----- //
module {
  func.func @MTTKRP.A.0.main(%arg0: tensor<128x128x128xf32, #sparse_tensor.encoding<{ lvlTypes = [ "compressed", "compressed", "compressed" ] }>>, %arg1: tensor<128x32xf32, #sparse_tensor.encoding<{ lvlTypes = [ "dense", "dense" ] }>>, %arg2: tensor<128x32xf32, #sparse_tensor.encoding<{ lvlTypes = [ "dense", "dense" ] }>>) -> tensor<128x32xf32, #sparse_tensor.encoding<{ lvlTypes = [ "dense", "dense" ] }>> attributes {llvm.emit_c_interface} {
    %c32 = arith.constant 32 : index
    %c0 = arith.constant 0 : index
    %c1 = arith.constant 1 : index
    %false = arith.constant false
    %true = arith.constant true
    %0 = bufferization.alloc_tensor() {bufferization.escape = [false]} : tensor<128x128x32xf32, #sparse_tensor.encoding<{ lvlTypes = [ "compressed", "compressed", "dense" ] }>>
    %1 = sparse_tensor.positions %arg0 {level = 0 : index} : tensor<128x128x128xf32, #sparse_tensor.encoding<{ lvlTypes = [ "compressed", "compressed", "compressed" ] }>> to memref<?xindex>
    %2 = sparse_tensor.coordinates %arg0 {level = 0 : index} : tensor<128x128x128xf32, #sparse_tensor.encoding<{ lvlTypes = [ "compressed", "compressed", "compressed" ] }>> to memref<?xindex>
    %3 = sparse_tensor.positions %arg0 {level = 1 : index} : tensor<128x128x128xf32, #sparse_tensor.encoding<{ lvlTypes = [ "compressed", "compressed", "compressed" ] }>> to memref<?xindex>
    %4 = sparse_tensor.coordinates %arg0 {level = 1 : index} : tensor<128x128x128xf32, #sparse_tensor.encoding<{ lvlTypes = [ "compressed", "compressed", "compressed" ] }>> to memref<?xindex>
    %5 = sparse_tensor.positions %arg0 {level = 2 : index} : tensor<128x128x128xf32, #sparse_tensor.encoding<{ lvlTypes = [ "compressed", "compressed", "compressed" ] }>> to memref<?xindex>
    %6 = sparse_tensor.coordinates %arg0 {level = 2 : index} : tensor<128x128x128xf32, #sparse_tensor.encoding<{ lvlTypes = [ "compressed", "compressed", "compressed" ] }>> to memref<?xindex>
    %7 = sparse_tensor.values %arg0 : tensor<128x128x128xf32, #sparse_tensor.encoding<{ lvlTypes = [ "compressed", "compressed", "compressed" ] }>> to memref<?xf32>
    %8 = sparse_tensor.values %arg1 : tensor<128x32xf32, #sparse_tensor.encoding<{ lvlTypes = [ "dense", "dense" ] }>> to memref<?xf32>
    %9 = memref.load %1[%c0] : memref<?xindex>
    %10 = memref.load %1[%c1] : memref<?xindex>
    %11 = scf.for %arg3 = %9 to %10 step %c1 iter_args(%arg4 = %0) -> (tensor<128x128x32xf32, #sparse_tensor.encoding<{ lvlTypes = [ "compressed", "compressed", "dense" ] }>>) {
      %24 = memref.load %2[%arg3] : memref<?xindex>
      %25 = memref.load %3[%arg3] : memref<?xindex>
      %26 = arith.addi %arg3, %c1 : index
      %27 = memref.load %3[%26] : memref<?xindex>
      %28 = scf.for %arg5 = %25 to %27 step %c1 iter_args(%arg6 = %arg4) -> (tensor<128x128x32xf32, #sparse_tensor.encoding<{ lvlTypes = [ "compressed", "compressed", "dense" ] }>>) {
        %29 = memref.load %4[%arg5] : memref<?xindex>
        %values, %filled, %added, %count = sparse_tensor.expand %0 : tensor<128x128x32xf32, #sparse_tensor.encoding<{ lvlTypes = [ "compressed", "compressed", "dense" ] }>> to memref<?xf32>, memref<?xi1>, memref<?xindex>
        %30 = memref.load %5[%arg5] : memref<?xindex>
        %31 = arith.addi %arg5, %c1 : index
        %32 = memref.load %5[%31] : memref<?xindex>
        %33 = scf.for %arg7 = %30 to %32 step %c1 iter_args(%arg8 = %count) -> (index) {
          %35 = memref.load %6[%arg7] : memref<?xindex>
          %36 = memref.load %7[%arg7] : memref<?xf32>
          %37 = scf.for %arg9 = %c0 to %c32 step %c1 iter_args(%arg10 = %arg8) -> (index) {
            %38 = arith.muli %35, %c32 : index
            %39 = arith.addi %38, %arg9 : index
            %40 = memref.load %values[%arg9] : memref<?xf32>
            %41 = memref.load %8[%39] : memref<?xf32>
            %42 = arith.mulf %36, %41 : f32
            %43 = arith.addf %40, %42 : f32
            %44 = memref.load %filled[%arg9] : memref<?xi1>
            %45 = arith.cmpi eq, %44, %false : i1
            %46 = scf.if %45 -> (index) {
              memref.store %true, %filled[%arg9] : memref<?xi1>
              memref.store %arg9, %added[%arg10] : memref<?xindex>
              %47 = arith.addi %arg10, %c1 : index
              scf.yield %47 : index
            } else {
              scf.yield %arg10 : index
            }
            memref.store %43, %values[%arg9] : memref<?xf32>
            scf.yield %46 : index
          } {"Emitted from" = "linalg.generic"}
          scf.yield %37 : index
        } {"Emitted from" = "linalg.generic"}
        %34 = sparse_tensor.compress %values, %filled, %added, %33 into %arg6[%24, %29] : memref<?xf32>, memref<?xi1>, memref<?xindex>, tensor<128x128x32xf32, #sparse_tensor.encoding<{ lvlTypes = [ "compressed", "compressed", "dense" ] }>>
        scf.yield %34 : tensor<128x128x32xf32, #sparse_tensor.encoding<{ lvlTypes = [ "compressed", "compressed", "dense" ] }>>
      } {"Emitted from" = "linalg.generic"}
      scf.yield %28 : tensor<128x128x32xf32, #sparse_tensor.encoding<{ lvlTypes = [ "compressed", "compressed", "dense" ] }>>
    } {"Emitted from" = "linalg.generic"}
    %12 = sparse_tensor.load %11 hasInserts : tensor<128x128x32xf32, #sparse_tensor.encoding<{ lvlTypes = [ "compressed", "compressed", "dense" ] }>>
    %13 = bufferization.alloc_tensor() {bufferization.escape = [true]} : tensor<128x32xf32, #sparse_tensor.encoding<{ lvlTypes = [ "dense", "dense" ] }>>
    %14 = sparse_tensor.positions %12 {level = 0 : index} : tensor<128x128x32xf32, #sparse_tensor.encoding<{ lvlTypes = [ "compressed", "compressed", "dense" ] }>> to memref<?xindex>
    %15 = sparse_tensor.coordinates %12 {level = 0 : index} : tensor<128x128x32xf32, #sparse_tensor.encoding<{ lvlTypes = [ "compressed", "compressed", "dense" ] }>> to memref<?xindex>
    %16 = sparse_tensor.positions %12 {level = 1 : index} : tensor<128x128x32xf32, #sparse_tensor.encoding<{ lvlTypes = [ "compressed", "compressed", "dense" ] }>> to memref<?xindex>
    %17 = sparse_tensor.coordinates %12 {level = 1 : index} : tensor<128x128x32xf32, #sparse_tensor.encoding<{ lvlTypes = [ "compressed", "compressed", "dense" ] }>> to memref<?xindex>
    %18 = sparse_tensor.values %12 : tensor<128x128x32xf32, #sparse_tensor.encoding<{ lvlTypes = [ "compressed", "compressed", "dense" ] }>> to memref<?xf32>
    %19 = sparse_tensor.values %arg2 : tensor<128x32xf32, #sparse_tensor.encoding<{ lvlTypes = [ "dense", "dense" ] }>> to memref<?xf32>
    %20 = sparse_tensor.values %13 : tensor<128x32xf32, #sparse_tensor.encoding<{ lvlTypes = [ "dense", "dense" ] }>> to memref<?xf32>
    %21 = memref.load %14[%c0] : memref<?xindex>
    %22 = memref.load %14[%c1] : memref<?xindex>
    scf.parallel (%arg3) = (%21) to (%22) step (%c1) {
      %24 = memref.load %15[%arg3] : memref<?xindex>
      %25 = memref.load %16[%arg3] : memref<?xindex>
      %26 = arith.addi %arg3, %c1 : index
      %27 = memref.load %16[%26] : memref<?xindex>
      scf.parallel (%arg4) = (%25) to (%27) step (%c1) {
        %28 = memref.load %17[%arg4] : memref<?xindex>
        scf.parallel (%arg5) = (%c0) to (%c32) step (%c1) {
          %29 = arith.muli %arg4, %c32 : index
          %30 = arith.addi %29, %arg5 : index
          %31 = arith.muli %28, %c32 : index
          %32 = arith.addi %31, %arg5 : index
          %33 = arith.muli %24, %c32 : index
          %34 = arith.addi %33, %arg5 : index
          %35 = memref.load %20[%34] : memref<?xf32>
          %36 = memref.load %18[%30] : memref<?xf32>
          %37 = memref.load %19[%32] : memref<?xf32>
          %38 = arith.mulf %36, %37 : f32
          %39 = arith.addf %35, %38 : f32
          memref.store %39, %20[%34] : memref<?xf32>
          scf.yield
        } {"Emitted from" = "linalg.generic"}
        scf.yield
      } {"Emitted from" = "linalg.generic"}
      scf.yield
    } {"Emitted from" = "linalg.generic"}
    %23 = sparse_tensor.load %13 : tensor<128x32xf32, #sparse_tensor.encoding<{ lvlTypes = [ "dense", "dense" ] }>>
    return %23 : tensor<128x32xf32, #sparse_tensor.encoding<{ lvlTypes = [ "dense", "dense" ] }>>
  }
}


// -----// IR Dump After PostSparsificationRewrite (post-sparsification-rewrite) //----- //
module {
  func.func @MTTKRP.A.0.main(%arg0: tensor<128x128x128xf32, #sparse_tensor.encoding<{ lvlTypes = [ "compressed", "compressed", "compressed" ] }>>, %arg1: tensor<128x32xf32, #sparse_tensor.encoding<{ lvlTypes = [ "dense", "dense" ] }>>, %arg2: tensor<128x32xf32, #sparse_tensor.encoding<{ lvlTypes = [ "dense", "dense" ] }>>) -> tensor<128x32xf32, #sparse_tensor.encoding<{ lvlTypes = [ "dense", "dense" ] }>> attributes {llvm.emit_c_interface} {
    %c32 = arith.constant 32 : index
    %c0 = arith.constant 0 : index
    %c1 = arith.constant 1 : index
    %false = arith.constant false
    %true = arith.constant true
    %0 = bufferization.alloc_tensor() {bufferization.escape = [false]} : tensor<128x128x32xf32, #sparse_tensor.encoding<{ lvlTypes = [ "compressed", "compressed", "dense" ] }>>
    %1 = sparse_tensor.positions %arg0 {level = 0 : index} : tensor<128x128x128xf32, #sparse_tensor.encoding<{ lvlTypes = [ "compressed", "compressed", "compressed" ] }>> to memref<?xindex>
    %2 = sparse_tensor.coordinates %arg0 {level = 0 : index} : tensor<128x128x128xf32, #sparse_tensor.encoding<{ lvlTypes = [ "compressed", "compressed", "compressed" ] }>> to memref<?xindex>
    %3 = sparse_tensor.positions %arg0 {level = 1 : index} : tensor<128x128x128xf32, #sparse_tensor.encoding<{ lvlTypes = [ "compressed", "compressed", "compressed" ] }>> to memref<?xindex>
    %4 = sparse_tensor.coordinates %arg0 {level = 1 : index} : tensor<128x128x128xf32, #sparse_tensor.encoding<{ lvlTypes = [ "compressed", "compressed", "compressed" ] }>> to memref<?xindex>
    %5 = sparse_tensor.positions %arg0 {level = 2 : index} : tensor<128x128x128xf32, #sparse_tensor.encoding<{ lvlTypes = [ "compressed", "compressed", "compressed" ] }>> to memref<?xindex>
    %6 = sparse_tensor.coordinates %arg0 {level = 2 : index} : tensor<128x128x128xf32, #sparse_tensor.encoding<{ lvlTypes = [ "compressed", "compressed", "compressed" ] }>> to memref<?xindex>
    %7 = sparse_tensor.values %arg0 : tensor<128x128x128xf32, #sparse_tensor.encoding<{ lvlTypes = [ "compressed", "compressed", "compressed" ] }>> to memref<?xf32>
    %8 = sparse_tensor.values %arg1 : tensor<128x32xf32, #sparse_tensor.encoding<{ lvlTypes = [ "dense", "dense" ] }>> to memref<?xf32>
    %9 = memref.load %1[%c0] : memref<?xindex>
    %10 = memref.load %1[%c1] : memref<?xindex>
    %11 = scf.for %arg3 = %9 to %10 step %c1 iter_args(%arg4 = %0) -> (tensor<128x128x32xf32, #sparse_tensor.encoding<{ lvlTypes = [ "compressed", "compressed", "dense" ] }>>) {
      %24 = memref.load %2[%arg3] : memref<?xindex>
      %25 = memref.load %3[%arg3] : memref<?xindex>
      %26 = arith.addi %arg3, %c1 : index
      %27 = memref.load %3[%26] : memref<?xindex>
      %28 = scf.for %arg5 = %25 to %27 step %c1 iter_args(%arg6 = %arg4) -> (tensor<128x128x32xf32, #sparse_tensor.encoding<{ lvlTypes = [ "compressed", "compressed", "dense" ] }>>) {
        %29 = memref.load %4[%arg5] : memref<?xindex>
        %values, %filled, %added, %count = sparse_tensor.expand %0 : tensor<128x128x32xf32, #sparse_tensor.encoding<{ lvlTypes = [ "compressed", "compressed", "dense" ] }>> to memref<?xf32>, memref<?xi1>, memref<?xindex>
        %30 = memref.load %5[%arg5] : memref<?xindex>
        %31 = arith.addi %arg5, %c1 : index
        %32 = memref.load %5[%31] : memref<?xindex>
        %33 = scf.for %arg7 = %30 to %32 step %c1 iter_args(%arg8 = %count) -> (index) {
          %35 = memref.load %6[%arg7] : memref<?xindex>
          %36 = memref.load %7[%arg7] : memref<?xf32>
          %37 = scf.for %arg9 = %c0 to %c32 step %c1 iter_args(%arg10 = %arg8) -> (index) {
            %38 = arith.muli %35, %c32 : index
            %39 = arith.addi %38, %arg9 : index
            %40 = memref.load %values[%arg9] : memref<?xf32>
            %41 = memref.load %8[%39] : memref<?xf32>
            %42 = arith.mulf %36, %41 : f32
            %43 = arith.addf %40, %42 : f32
            %44 = memref.load %filled[%arg9] : memref<?xi1>
            %45 = arith.cmpi eq, %44, %false : i1
            %46 = scf.if %45 -> (index) {
              memref.store %true, %filled[%arg9] : memref<?xi1>
              memref.store %arg9, %added[%arg10] : memref<?xindex>
              %47 = arith.addi %arg10, %c1 : index
              scf.yield %47 : index
            } else {
              scf.yield %arg10 : index
            }
            memref.store %43, %values[%arg9] : memref<?xf32>
            scf.yield %46 : index
          } {"Emitted from" = "linalg.generic"}
          scf.yield %37 : index
        } {"Emitted from" = "linalg.generic"}
        %34 = sparse_tensor.compress %values, %filled, %added, %33 into %arg6[%24, %29] : memref<?xf32>, memref<?xi1>, memref<?xindex>, tensor<128x128x32xf32, #sparse_tensor.encoding<{ lvlTypes = [ "compressed", "compressed", "dense" ] }>>
        scf.yield %34 : tensor<128x128x32xf32, #sparse_tensor.encoding<{ lvlTypes = [ "compressed", "compressed", "dense" ] }>>
      } {"Emitted from" = "linalg.generic"}
      scf.yield %28 : tensor<128x128x32xf32, #sparse_tensor.encoding<{ lvlTypes = [ "compressed", "compressed", "dense" ] }>>
    } {"Emitted from" = "linalg.generic"}
    %12 = sparse_tensor.load %11 hasInserts : tensor<128x128x32xf32, #sparse_tensor.encoding<{ lvlTypes = [ "compressed", "compressed", "dense" ] }>>
    %13 = bufferization.alloc_tensor() {bufferization.escape = [true]} : tensor<128x32xf32, #sparse_tensor.encoding<{ lvlTypes = [ "dense", "dense" ] }>>
    %14 = sparse_tensor.positions %12 {level = 0 : index} : tensor<128x128x32xf32, #sparse_tensor.encoding<{ lvlTypes = [ "compressed", "compressed", "dense" ] }>> to memref<?xindex>
    %15 = sparse_tensor.coordinates %12 {level = 0 : index} : tensor<128x128x32xf32, #sparse_tensor.encoding<{ lvlTypes = [ "compressed", "compressed", "dense" ] }>> to memref<?xindex>
    %16 = sparse_tensor.positions %12 {level = 1 : index} : tensor<128x128x32xf32, #sparse_tensor.encoding<{ lvlTypes = [ "compressed", "compressed", "dense" ] }>> to memref<?xindex>
    %17 = sparse_tensor.coordinates %12 {level = 1 : index} : tensor<128x128x32xf32, #sparse_tensor.encoding<{ lvlTypes = [ "compressed", "compressed", "dense" ] }>> to memref<?xindex>
    %18 = sparse_tensor.values %12 : tensor<128x128x32xf32, #sparse_tensor.encoding<{ lvlTypes = [ "compressed", "compressed", "dense" ] }>> to memref<?xf32>
    %19 = sparse_tensor.values %arg2 : tensor<128x32xf32, #sparse_tensor.encoding<{ lvlTypes = [ "dense", "dense" ] }>> to memref<?xf32>
    %20 = sparse_tensor.values %13 : tensor<128x32xf32, #sparse_tensor.encoding<{ lvlTypes = [ "dense", "dense" ] }>> to memref<?xf32>
    %21 = memref.load %14[%c0] : memref<?xindex>
    %22 = memref.load %14[%c1] : memref<?xindex>
    scf.parallel (%arg3) = (%21) to (%22) step (%c1) {
      %24 = memref.load %15[%arg3] : memref<?xindex>
      %25 = memref.load %16[%arg3] : memref<?xindex>
      %26 = arith.addi %arg3, %c1 : index
      %27 = memref.load %16[%26] : memref<?xindex>
      scf.parallel (%arg4) = (%25) to (%27) step (%c1) {
        %28 = memref.load %17[%arg4] : memref<?xindex>
        scf.parallel (%arg5) = (%c0) to (%c32) step (%c1) {
          %29 = arith.muli %arg4, %c32 : index
          %30 = arith.addi %29, %arg5 : index
          %31 = arith.muli %28, %c32 : index
          %32 = arith.addi %31, %arg5 : index
          %33 = arith.muli %24, %c32 : index
          %34 = arith.addi %33, %arg5 : index
          %35 = memref.load %20[%34] : memref<?xf32>
          %36 = memref.load %18[%30] : memref<?xf32>
          %37 = memref.load %19[%32] : memref<?xf32>
          %38 = arith.mulf %36, %37 : f32
          %39 = arith.addf %35, %38 : f32
          memref.store %39, %20[%34] : memref<?xf32>
          scf.yield
        } {"Emitted from" = "linalg.generic"}
        scf.yield
      } {"Emitted from" = "linalg.generic"}
      scf.yield
    } {"Emitted from" = "linalg.generic"}
    %23 = sparse_tensor.load %13 : tensor<128x32xf32, #sparse_tensor.encoding<{ lvlTypes = [ "dense", "dense" ] }>>
    return %23 : tensor<128x32xf32, #sparse_tensor.encoding<{ lvlTypes = [ "dense", "dense" ] }>>
  }
}


// -----// IR Dump After SparseTensorCodegen (sparse-tensor-codegen) //----- //
module {
  func.func private @_insert_compressed_compressed_dense_128_128_32_f32_0_0(%arg0: memref<?xindex>, %arg1: memref<?xindex>, %arg2: memref<?xindex>, %arg3: memref<?xindex>, %arg4: memref<?xf32>, %arg5: !sparse_tensor.storage_specifier<#sparse_tensor.encoding<{ lvlTypes = [ "compressed", "compressed", "dense" ] }>>, %arg6: index, %arg7: index, %arg8: index, %arg9: f32) -> (memref<?xindex>, memref<?xindex>, memref<?xindex>, memref<?xindex>, memref<?xf32>, !sparse_tensor.storage_specifier<#sparse_tensor.encoding<{ lvlTypes = [ "compressed", "compressed", "dense" ] }>>) {
    %c0 = arith.constant 0 : index
    %c1 = arith.constant 1 : index
    %0 = arith.addi %c0, %c1 : index
    %1 = memref.load %arg0[%c0] : memref<?xindex>
    %2 = memref.load %arg0[%0] : memref<?xindex>
    %3 = sparse_tensor.storage_specifier.get %arg5  crd_mem_sz at 0 : !sparse_tensor.storage_specifier<#sparse_tensor.encoding<{ lvlTypes = [ "compressed", "compressed", "dense" ] }>>
    %4 = arith.subi %2, %c1 : index
    %5 = arith.cmpi ult, %1, %2 : index
    %6 = scf.if %5 -> (i1) {
      %18 = memref.load %arg1[%4] : memref<?xindex>
      %19 = arith.cmpi eq, %18, %arg6 : index
      scf.yield %19 : i1
    } else {
      %false = arith.constant false
      scf.yield %false : i1
    }
    %7:7 = scf.if %6 -> (memref<?xindex>, memref<?xindex>, memref<?xindex>, memref<?xindex>, memref<?xf32>, !sparse_tensor.storage_specifier<#sparse_tensor.encoding<{ lvlTypes = [ "compressed", "compressed", "dense" ] }>>, index) {
      scf.yield %arg0, %arg1, %arg2, %arg3, %arg4, %arg5, %4 : memref<?xindex>, memref<?xindex>, memref<?xindex>, memref<?xindex>, memref<?xf32>, !sparse_tensor.storage_specifier<#sparse_tensor.encoding<{ lvlTypes = [ "compressed", "compressed", "dense" ] }>>, index
    } else {
      %18 = arith.addi %3, %c1 : index
      memref.store %18, %arg0[%0] : memref<?xindex>
      %19 = sparse_tensor.storage_specifier.get %arg5  crd_mem_sz at 0 : !sparse_tensor.storage_specifier<#sparse_tensor.encoding<{ lvlTypes = [ "compressed", "compressed", "dense" ] }>>
      %outBuffer, %newSize = sparse_tensor.push_back %19, %arg1, %arg6 : index, memref<?xindex>, index
      %20 = sparse_tensor.storage_specifier.set %arg5  crd_mem_sz at 0 with %newSize : !sparse_tensor.storage_specifier<#sparse_tensor.encoding<{ lvlTypes = [ "compressed", "compressed", "dense" ] }>>
      %c1_1 = arith.constant 1 : index
      %c0_2 = arith.constant 0 : index
      %21 = sparse_tensor.storage_specifier.get %20  pos_mem_sz at 1 : !sparse_tensor.storage_specifier<#sparse_tensor.encoding<{ lvlTypes = [ "compressed", "compressed", "dense" ] }>>
      %outBuffer_3, %newSize_4 = sparse_tensor.push_back %21, %arg2, %c0_2, %c1_1 : index, memref<?xindex>, index, index
      %22 = sparse_tensor.storage_specifier.set %20  pos_mem_sz at 1 with %newSize_4 : !sparse_tensor.storage_specifier<#sparse_tensor.encoding<{ lvlTypes = [ "compressed", "compressed", "dense" ] }>>
      scf.yield %arg0, %outBuffer, %outBuffer_3, %arg3, %arg4, %22, %3 : memref<?xindex>, memref<?xindex>, memref<?xindex>, memref<?xindex>, memref<?xf32>, !sparse_tensor.storage_specifier<#sparse_tensor.encoding<{ lvlTypes = [ "compressed", "compressed", "dense" ] }>>, index
    }
    %c1_0 = arith.constant 1 : index
    %8 = arith.addi %7#6, %c1_0 : index
    %9 = memref.load %7#2[%7#6] : memref<?xindex>
    %10 = memref.load %7#2[%8] : memref<?xindex>
    %11 = sparse_tensor.storage_specifier.get %7#5  crd_mem_sz at 1 : !sparse_tensor.storage_specifier<#sparse_tensor.encoding<{ lvlTypes = [ "compressed", "compressed", "dense" ] }>>
    %12 = arith.subi %10, %c1_0 : index
    %13 = arith.cmpi ult, %9, %10 : index
    %14 = scf.if %13 -> (i1) {
      %18 = memref.load %7#3[%12] : memref<?xindex>
      %19 = arith.cmpi eq, %18, %arg7 : index
      scf.yield %19 : i1
    } else {
      memref.store %11, %7#2[%7#6] : memref<?xindex>
      %false = arith.constant false
      scf.yield %false : i1
    }
    %15:7 = scf.if %14 -> (memref<?xindex>, memref<?xindex>, memref<?xindex>, memref<?xindex>, memref<?xf32>, !sparse_tensor.storage_specifier<#sparse_tensor.encoding<{ lvlTypes = [ "compressed", "compressed", "dense" ] }>>, index) {
      scf.yield %7#0, %7#1, %7#2, %7#3, %7#4, %7#5, %12 : memref<?xindex>, memref<?xindex>, memref<?xindex>, memref<?xindex>, memref<?xf32>, !sparse_tensor.storage_specifier<#sparse_tensor.encoding<{ lvlTypes = [ "compressed", "compressed", "dense" ] }>>, index
    } else {
      %18 = arith.addi %11, %c1_0 : index
      memref.store %18, %7#2[%8] : memref<?xindex>
      %19 = sparse_tensor.storage_specifier.get %7#5  crd_mem_sz at 1 : !sparse_tensor.storage_specifier<#sparse_tensor.encoding<{ lvlTypes = [ "compressed", "compressed", "dense" ] }>>
      %outBuffer, %newSize = sparse_tensor.push_back %19, %7#3, %arg7 : index, memref<?xindex>, index
      %20 = sparse_tensor.storage_specifier.set %7#5  crd_mem_sz at 1 with %newSize : !sparse_tensor.storage_specifier<#sparse_tensor.encoding<{ lvlTypes = [ "compressed", "compressed", "dense" ] }>>
      %c1_1 = arith.constant 1 : index
      %c32_2 = arith.constant 32 : index
      %21 = arith.muli %c1_1, %c32_2 : index
      %cst = arith.constant 0.000000e+00 : f32
      %22 = sparse_tensor.storage_specifier.get %20  val_mem_sz : !sparse_tensor.storage_specifier<#sparse_tensor.encoding<{ lvlTypes = [ "compressed", "compressed", "dense" ] }>>
      %outBuffer_3, %newSize_4 = sparse_tensor.push_back %22, %7#4, %cst, %21 : index, memref<?xf32>, f32, index
      %23 = sparse_tensor.storage_specifier.set %20  val_mem_sz with %newSize_4 : !sparse_tensor.storage_specifier<#sparse_tensor.encoding<{ lvlTypes = [ "compressed", "compressed", "dense" ] }>>
      scf.yield %7#0, %7#1, %7#2, %outBuffer, %outBuffer_3, %23, %11 : memref<?xindex>, memref<?xindex>, memref<?xindex>, memref<?xindex>, memref<?xf32>, !sparse_tensor.storage_specifier<#sparse_tensor.encoding<{ lvlTypes = [ "compressed", "compressed", "dense" ] }>>, index
    }
    %c32 = arith.constant 32 : index
    %16 = arith.muli %c32, %15#6 : index
    %17 = arith.addi %16, %arg8 : index
    memref.store %arg9, %15#4[%17] : memref<?xf32>
    return %15#0, %15#1, %15#2, %15#3, %15#4, %15#5 : memref<?xindex>, memref<?xindex>, memref<?xindex>, memref<?xindex>, memref<?xf32>, !sparse_tensor.storage_specifier<#sparse_tensor.encoding<{ lvlTypes = [ "compressed", "compressed", "dense" ] }>>
  }
  func.func @MTTKRP.A.0.main(%arg0: memref<?xindex>, %arg1: memref<?xindex>, %arg2: memref<?xindex>, %arg3: memref<?xindex>, %arg4: memref<?xindex>, %arg5: memref<?xindex>, %arg6: memref<?xf32>, %arg7: !sparse_tensor.storage_specifier<#sparse_tensor.encoding<{ lvlTypes = [ "compressed", "compressed", "compressed" ] }>>, %arg8: memref<?xf32>, %arg9: !sparse_tensor.storage_specifier<#sparse_tensor.encoding<{ lvlTypes = [ "dense", "dense" ] }>>, %arg10: memref<?xf32>, %arg11: !sparse_tensor.storage_specifier<#sparse_tensor.encoding<{ lvlTypes = [ "dense", "dense" ] }>>) -> (memref<?xf32>, !sparse_tensor.storage_specifier<#sparse_tensor.encoding<{ lvlTypes = [ "dense", "dense" ] }>>) attributes {llvm.emit_c_interface} {
    %c32 = arith.constant 32 : index
    %c0 = arith.constant 0 : index
    %c1 = arith.constant 1 : index
    %false = arith.constant false
    %true = arith.constant true
    %c128 = arith.constant 128 : index
    %c128_0 = arith.constant 128 : index
    %c32_1 = arith.constant 32 : index
    %c16 = arith.constant 16 : index
    %alloc = memref.alloc(%c16) : memref<?xindex>
    %alloc_2 = memref.alloc(%c16) : memref<?xindex>
    %alloc_3 = memref.alloc(%c16) : memref<?xindex>
    %alloc_4 = memref.alloc(%c16) : memref<?xindex>
    %alloc_5 = memref.alloc(%c16) : memref<?xf32>
    %0 = sparse_tensor.storage_specifier.init : !sparse_tensor.storage_specifier<#sparse_tensor.encoding<{ lvlTypes = [ "compressed", "compressed", "dense" ] }>>
    %c0_6 = arith.constant 0 : index
    %1 = sparse_tensor.storage_specifier.set %0  lvl_sz at 0 with %c128 : !sparse_tensor.storage_specifier<#sparse_tensor.encoding<{ lvlTypes = [ "compressed", "compressed", "dense" ] }>>
    %2 = sparse_tensor.storage_specifier.get %1  pos_mem_sz at 0 : !sparse_tensor.storage_specifier<#sparse_tensor.encoding<{ lvlTypes = [ "compressed", "compressed", "dense" ] }>>
    %outBuffer, %newSize = sparse_tensor.push_back %2, %alloc, %c0_6 : index, memref<?xindex>, index
    %3 = sparse_tensor.storage_specifier.set %1  pos_mem_sz at 0 with %newSize : !sparse_tensor.storage_specifier<#sparse_tensor.encoding<{ lvlTypes = [ "compressed", "compressed", "dense" ] }>>
    %4 = sparse_tensor.storage_specifier.set %3  lvl_sz at 1 with %c128_0 : !sparse_tensor.storage_specifier<#sparse_tensor.encoding<{ lvlTypes = [ "compressed", "compressed", "dense" ] }>>
    %5 = sparse_tensor.storage_specifier.get %4  pos_mem_sz at 1 : !sparse_tensor.storage_specifier<#sparse_tensor.encoding<{ lvlTypes = [ "compressed", "compressed", "dense" ] }>>
    %outBuffer_7, %newSize_8 = sparse_tensor.push_back %5, %alloc_3, %c0_6 : index, memref<?xindex>, index
    %6 = sparse_tensor.storage_specifier.set %4  pos_mem_sz at 1 with %newSize_8 : !sparse_tensor.storage_specifier<#sparse_tensor.encoding<{ lvlTypes = [ "compressed", "compressed", "dense" ] }>>
    %7 = sparse_tensor.storage_specifier.set %6  lvl_sz at 2 with %c32_1 : !sparse_tensor.storage_specifier<#sparse_tensor.encoding<{ lvlTypes = [ "compressed", "compressed", "dense" ] }>>
    %c1_9 = arith.constant 1 : index
    %c0_10 = arith.constant 0 : index
    %8 = sparse_tensor.storage_specifier.get %7  pos_mem_sz at 0 : !sparse_tensor.storage_specifier<#sparse_tensor.encoding<{ lvlTypes = [ "compressed", "compressed", "dense" ] }>>
    %outBuffer_11, %newSize_12 = sparse_tensor.push_back %8, %outBuffer, %c0_10, %c1_9 : index, memref<?xindex>, index, index
    %9 = sparse_tensor.storage_specifier.set %7  pos_mem_sz at 0 with %newSize_12 : !sparse_tensor.storage_specifier<#sparse_tensor.encoding<{ lvlTypes = [ "compressed", "compressed", "dense" ] }>>
    %10 = builtin.unrealized_conversion_cast %outBuffer_11, %alloc_2, %outBuffer_7, %alloc_4, %alloc_5, %9 : memref<?xindex>, memref<?xindex>, memref<?xindex>, memref<?xindex>, memref<?xf32>, !sparse_tensor.storage_specifier<#sparse_tensor.encoding<{ lvlTypes = [ "compressed", "compressed", "dense" ] }>> to tensor<128x128x32xf32, #sparse_tensor.encoding<{ lvlTypes = [ "compressed", "compressed", "dense" ] }>>
    %c32_13 = arith.constant 32 : index
    %alloc_14 = memref.alloc(%c32_13) : memref<?xf32>
    %alloc_15 = memref.alloc(%c32_13) : memref<?xi1>
    %alloc_16 = memref.alloc(%c32_13) : memref<?xindex>
    %c0_17 = arith.constant 0 : index
    %cst = arith.constant 0.000000e+00 : f32
    linalg.fill ins(%cst : f32) outs(%alloc_14 : memref<?xf32>)
    %false_18 = arith.constant false
    linalg.fill ins(%false_18 : i1) outs(%alloc_15 : memref<?xi1>)
    %11 = memref.load %arg0[%c0] : memref<?xindex>
    %12 = memref.load %arg0[%c1] : memref<?xindex>
    %13:6 = scf.for %arg12 = %11 to %12 step %c1 iter_args(%arg13 = %outBuffer_11, %arg14 = %alloc_2, %arg15 = %outBuffer_7, %arg16 = %alloc_4, %arg17 = %alloc_5, %arg18 = %9) -> (memref<?xindex>, memref<?xindex>, memref<?xindex>, memref<?xindex>, memref<?xf32>, !sparse_tensor.storage_specifier<#sparse_tensor.encoding<{ lvlTypes = [ "compressed", "compressed", "dense" ] }>>) {
      %31 = memref.load %arg1[%arg12] : memref<?xindex>
      %32 = memref.load %arg2[%arg12] : memref<?xindex>
      %33 = arith.addi %arg12, %c1 : index
      %34 = memref.load %arg2[%33] : memref<?xindex>
      %35:6 = scf.for %arg19 = %32 to %34 step %c1 iter_args(%arg20 = %arg13, %arg21 = %arg14, %arg22 = %arg15, %arg23 = %arg16, %arg24 = %arg17, %arg25 = %arg18) -> (memref<?xindex>, memref<?xindex>, memref<?xindex>, memref<?xindex>, memref<?xf32>, !sparse_tensor.storage_specifier<#sparse_tensor.encoding<{ lvlTypes = [ "compressed", "compressed", "dense" ] }>>) {
        %37 = memref.load %arg3[%arg19] : memref<?xindex>
        %38 = memref.load %arg4[%arg19] : memref<?xindex>
        %39 = arith.addi %arg19, %c1 : index
        %40 = memref.load %arg4[%39] : memref<?xindex>
        %41 = scf.for %arg26 = %38 to %40 step %c1 iter_args(%arg27 = %c0_17) -> (index) {
          %44 = memref.load %arg5[%arg26] : memref<?xindex>
          %45 = memref.load %arg6[%arg26] : memref<?xf32>
          %46 = scf.for %arg28 = %c0 to %c32 step %c1 iter_args(%arg29 = %arg27) -> (index) {
            %47 = arith.muli %44, %c32 : index
            %48 = arith.addi %47, %arg28 : index
            %49 = memref.load %alloc_14[%arg28] : memref<?xf32>
            %50 = memref.load %arg8[%48] : memref<?xf32>
            %51 = arith.mulf %45, %50 : f32
            %52 = arith.addf %49, %51 : f32
            %53 = memref.load %alloc_15[%arg28] : memref<?xi1>
            %54 = arith.cmpi eq, %53, %false : i1
            %55 = scf.if %54 -> (index) {
              memref.store %true, %alloc_15[%arg28] : memref<?xi1>
              memref.store %arg28, %alloc_16[%arg29] : memref<?xindex>
              %56 = arith.addi %arg29, %c1 : index
              scf.yield %56 : index
            } else {
              scf.yield %arg29 : index
            }
            memref.store %52, %alloc_14[%arg28] : memref<?xf32>
            scf.yield %55 : index
          } {"Emitted from" = "linalg.generic"}
          scf.yield %46 : index
        } {"Emitted from" = "linalg.generic"}
        sparse_tensor.sort  hybrid_quick_sort %41, %alloc_16 : memref<?xindex>
        %c0_32 = arith.constant 0 : index
        %c1_33 = arith.constant 1 : index
        %42:6 = scf.for %arg26 = %c0_32 to %41 step %c1_33 iter_args(%arg27 = %arg20, %arg28 = %arg21, %arg29 = %arg22, %arg30 = %arg23, %arg31 = %arg24, %arg32 = %arg25) -> (memref<?xindex>, memref<?xindex>, memref<?xindex>, memref<?xindex>, memref<?xf32>, !sparse_tensor.storage_specifier<#sparse_tensor.encoding<{ lvlTypes = [ "compressed", "compressed", "dense" ] }>>) {
          %44 = memref.load %alloc_16[%arg26] : memref<?xindex>
          %45 = memref.load %alloc_14[%44] : memref<?xf32>
          %46:6 = func.call @_insert_compressed_compressed_dense_128_128_32_f32_0_0(%arg27, %arg28, %arg29, %arg30, %arg31, %arg32, %31, %37, %44, %45) : (memref<?xindex>, memref<?xindex>, memref<?xindex>, memref<?xindex>, memref<?xf32>, !sparse_tensor.storage_specifier<#sparse_tensor.encoding<{ lvlTypes = [ "compressed", "compressed", "dense" ] }>>, index, index, index, f32) -> (memref<?xindex>, memref<?xindex>, memref<?xindex>, memref<?xindex>, memref<?xf32>, !sparse_tensor.storage_specifier<#sparse_tensor.encoding<{ lvlTypes = [ "compressed", "compressed", "dense" ] }>>)
          %cst_34 = arith.constant 0.000000e+00 : f32
          memref.store %cst_34, %alloc_14[%44] : memref<?xf32>
          %false_35 = arith.constant false
          memref.store %false_35, %alloc_15[%44] : memref<?xi1>
          scf.yield %46#0, %46#1, %46#2, %46#3, %46#4, %46#5 : memref<?xindex>, memref<?xindex>, memref<?xindex>, memref<?xindex>, memref<?xf32>, !sparse_tensor.storage_specifier<#sparse_tensor.encoding<{ lvlTypes = [ "compressed", "compressed", "dense" ] }>>
        }
        %43 = builtin.unrealized_conversion_cast %42#0, %42#1, %42#2, %42#3, %42#4, %42#5 : memref<?xindex>, memref<?xindex>, memref<?xindex>, memref<?xindex>, memref<?xf32>, !sparse_tensor.storage_specifier<#sparse_tensor.encoding<{ lvlTypes = [ "compressed", "compressed", "dense" ] }>> to tensor<128x128x32xf32, #sparse_tensor.encoding<{ lvlTypes = [ "compressed", "compressed", "dense" ] }>>
        scf.yield %42#0, %42#1, %42#2, %42#3, %42#4, %42#5 : memref<?xindex>, memref<?xindex>, memref<?xindex>, memref<?xindex>, memref<?xf32>, !sparse_tensor.storage_specifier<#sparse_tensor.encoding<{ lvlTypes = [ "compressed", "compressed", "dense" ] }>>
      } {"Emitted from" = "linalg.generic"}
      %36 = builtin.unrealized_conversion_cast %35#0, %35#1, %35#2, %35#3, %35#4, %35#5 : memref<?xindex>, memref<?xindex>, memref<?xindex>, memref<?xindex>, memref<?xf32>, !sparse_tensor.storage_specifier<#sparse_tensor.encoding<{ lvlTypes = [ "compressed", "compressed", "dense" ] }>> to tensor<128x128x32xf32, #sparse_tensor.encoding<{ lvlTypes = [ "compressed", "compressed", "dense" ] }>>
      scf.yield %35#0, %35#1, %35#2, %35#3, %35#4, %35#5 : memref<?xindex>, memref<?xindex>, memref<?xindex>, memref<?xindex>, memref<?xf32>, !sparse_tensor.storage_specifier<#sparse_tensor.encoding<{ lvlTypes = [ "compressed", "compressed", "dense" ] }>>
    } {"Emitted from" = "linalg.generic"}
    memref.dealloc %alloc_14 : memref<?xf32>
    memref.dealloc %alloc_15 : memref<?xi1>
    memref.dealloc %alloc_16 : memref<?xindex>
    %14 = builtin.unrealized_conversion_cast %13#0, %13#1, %13#2, %13#3, %13#4, %13#5 : memref<?xindex>, memref<?xindex>, memref<?xindex>, memref<?xindex>, memref<?xf32>, !sparse_tensor.storage_specifier<#sparse_tensor.encoding<{ lvlTypes = [ "compressed", "compressed", "dense" ] }>> to tensor<128x128x32xf32, #sparse_tensor.encoding<{ lvlTypes = [ "compressed", "compressed", "dense" ] }>>
    %15 = sparse_tensor.storage_specifier.get %13#5  pos_mem_sz at 1 : !sparse_tensor.storage_specifier<#sparse_tensor.encoding<{ lvlTypes = [ "compressed", "compressed", "dense" ] }>>
    %c0_19 = arith.constant 0 : index
    %c1_20 = arith.constant 1 : index
    %16 = memref.load %13#2[%c0_19] : memref<?xindex>
    %c1_21 = arith.constant 1 : index
    %17 = scf.for %arg12 = %c1_20 to %15 step %c1_21 iter_args(%arg13 = %16) -> (index) {
      %31 = memref.load %13#2[%arg12] : memref<?xindex>
      %c0_32 = arith.constant 0 : index
      %32 = arith.cmpi eq, %31, %c0_32 : index
      %33 = scf.if %32 -> (index) {
        memref.store %arg13, %13#2[%arg12] : memref<?xindex>
        scf.yield %arg13 : index
      } else {
        scf.yield %31 : index
      }
      scf.yield %33 : index
    }
    %18 = builtin.unrealized_conversion_cast %13#0, %13#1, %13#2, %13#3, %13#4, %13#5 : memref<?xindex>, memref<?xindex>, memref<?xindex>, memref<?xindex>, memref<?xf32>, !sparse_tensor.storage_specifier<#sparse_tensor.encoding<{ lvlTypes = [ "compressed", "compressed", "dense" ] }>> to tensor<128x128x32xf32, #sparse_tensor.encoding<{ lvlTypes = [ "compressed", "compressed", "dense" ] }>>
    %c128_22 = arith.constant 128 : index
    %c32_23 = arith.constant 32 : index
    %19 = arith.muli %c128_22, %c32_23 : index
    %alloc_24 = memref.alloc(%19) : memref<?xf32>
    %20 = sparse_tensor.storage_specifier.init : !sparse_tensor.storage_specifier<#sparse_tensor.encoding<{ lvlTypes = [ "dense", "dense" ] }>>
    %c0_25 = arith.constant 0 : index
    %21 = sparse_tensor.storage_specifier.set %20  lvl_sz at 0 with %c128_22 : !sparse_tensor.storage_specifier<#sparse_tensor.encoding<{ lvlTypes = [ "dense", "dense" ] }>>
    %22 = sparse_tensor.storage_specifier.set %21  lvl_sz at 1 with %c32_23 : !sparse_tensor.storage_specifier<#sparse_tensor.encoding<{ lvlTypes = [ "dense", "dense" ] }>>
    %c1_26 = arith.constant 1 : index
    %c128_27 = arith.constant 128 : index
    %23 = arith.muli %c1_26, %c128_27 : index
    %c32_28 = arith.constant 32 : index
    %24 = arith.muli %23, %c32_28 : index
    %cst_29 = arith.constant 0.000000e+00 : f32
    %25 = sparse_tensor.storage_specifier.get %22  val_mem_sz : !sparse_tensor.storage_specifier<#sparse_tensor.encoding<{ lvlTypes = [ "dense", "dense" ] }>>
    %outBuffer_30, %newSize_31 = sparse_tensor.push_back %25, %alloc_24, %cst_29, %24 : index, memref<?xf32>, f32, index
    %26 = sparse_tensor.storage_specifier.set %22  val_mem_sz with %newSize_31 : !sparse_tensor.storage_specifier<#sparse_tensor.encoding<{ lvlTypes = [ "dense", "dense" ] }>>
    %27 = builtin.unrealized_conversion_cast %outBuffer_30, %26 : memref<?xf32>, !sparse_tensor.storage_specifier<#sparse_tensor.encoding<{ lvlTypes = [ "dense", "dense" ] }>> to tensor<128x32xf32, #sparse_tensor.encoding<{ lvlTypes = [ "dense", "dense" ] }>>
    %28 = memref.load %13#0[%c0] : memref<?xindex>
    %29 = memref.load %13#0[%c1] : memref<?xindex>
    scf.parallel (%arg12) = (%28) to (%29) step (%c1) {
      %31 = memref.load %13#1[%arg12] : memref<?xindex>
      %32 = memref.load %13#2[%arg12] : memref<?xindex>
      %33 = arith.addi %arg12, %c1 : index
      %34 = memref.load %13#2[%33] : memref<?xindex>
      scf.parallel (%arg13) = (%32) to (%34) step (%c1) {
        %35 = memref.load %13#3[%arg13] : memref<?xindex>
        scf.parallel (%arg14) = (%c0) to (%c32) step (%c1) {
          %36 = arith.muli %arg13, %c32 : index
          %37 = arith.addi %36, %arg14 : index
          %38 = arith.muli %35, %c32 : index
          %39 = arith.addi %38, %arg14 : index
          %40 = arith.muli %31, %c32 : index
          %41 = arith.addi %40, %arg14 : index
          %42 = memref.load %outBuffer_30[%41] : memref<?xf32>
          %43 = memref.load %13#4[%37] : memref<?xf32>
          %44 = memref.load %arg10[%39] : memref<?xf32>
          %45 = arith.mulf %43, %44 : f32
          %46 = arith.addf %42, %45 : f32
          memref.store %46, %outBuffer_30[%41] : memref<?xf32>
          scf.yield
        } {"Emitted from" = "linalg.generic"}
        scf.yield
      } {"Emitted from" = "linalg.generic"}
      scf.yield
    } {"Emitted from" = "linalg.generic"}
    %30 = builtin.unrealized_conversion_cast %outBuffer_30, %26 : memref<?xf32>, !sparse_tensor.storage_specifier<#sparse_tensor.encoding<{ lvlTypes = [ "dense", "dense" ] }>> to tensor<128x32xf32, #sparse_tensor.encoding<{ lvlTypes = [ "dense", "dense" ] }>>
    return %outBuffer_30, %26 : memref<?xf32>, !sparse_tensor.storage_specifier<#sparse_tensor.encoding<{ lvlTypes = [ "dense", "dense" ] }>>
  }
}


// -----// IR Dump After SparseBufferRewrite (sparse-buffer-rewrite) //----- //
module {
  func.func private @_insert_compressed_compressed_dense_128_128_32_f32_0_0(%arg0: memref<?xindex>, %arg1: memref<?xindex>, %arg2: memref<?xindex>, %arg3: memref<?xindex>, %arg4: memref<?xf32>, %arg5: !sparse_tensor.storage_specifier<#sparse_tensor.encoding<{ lvlTypes = [ "compressed", "compressed", "dense" ] }>>, %arg6: index, %arg7: index, %arg8: index, %arg9: f32) -> (memref<?xindex>, memref<?xindex>, memref<?xindex>, memref<?xindex>, memref<?xf32>, !sparse_tensor.storage_specifier<#sparse_tensor.encoding<{ lvlTypes = [ "compressed", "compressed", "dense" ] }>>) {
    %c1 = arith.constant 1 : index
    %c2 = arith.constant 2 : index
    %cst = arith.constant 0.000000e+00 : f32
    %c32 = arith.constant 32 : index
    %false = arith.constant false
    %c0 = arith.constant 0 : index
    %0 = memref.load %arg0[%c0] : memref<?xindex>
    %1 = memref.load %arg0[%c1] : memref<?xindex>
    %2 = sparse_tensor.storage_specifier.get %arg5  crd_mem_sz at 0 : !sparse_tensor.storage_specifier<#sparse_tensor.encoding<{ lvlTypes = [ "compressed", "compressed", "dense" ] }>>
    %3 = arith.subi %1, %c1 : index
    %4 = arith.cmpi ult, %0, %1 : index
    %5 = scf.if %4 -> (i1) {
      %17 = memref.load %arg1[%3] : memref<?xindex>
      %18 = arith.cmpi eq, %17, %arg6 : index
      scf.yield %18 : i1
    } else {
      scf.yield %false : i1
    }
    %6:7 = scf.if %5 -> (memref<?xindex>, memref<?xindex>, memref<?xindex>, memref<?xindex>, memref<?xf32>, !sparse_tensor.storage_specifier<#sparse_tensor.encoding<{ lvlTypes = [ "compressed", "compressed", "dense" ] }>>, index) {
      scf.yield %arg0, %arg1, %arg2, %arg3, %arg4, %arg5, %3 : memref<?xindex>, memref<?xindex>, memref<?xindex>, memref<?xindex>, memref<?xf32>, !sparse_tensor.storage_specifier<#sparse_tensor.encoding<{ lvlTypes = [ "compressed", "compressed", "dense" ] }>>, index
    } else {
      %17 = arith.addi %2, %c1 : index
      memref.store %17, %arg0[%c1] : memref<?xindex>
      %18 = sparse_tensor.storage_specifier.get %arg5  crd_mem_sz at 0 : !sparse_tensor.storage_specifier<#sparse_tensor.encoding<{ lvlTypes = [ "compressed", "compressed", "dense" ] }>>
      %dim = memref.dim %arg1, %c0 : memref<?xindex>
      %19 = arith.addi %18, %c1 : index
      %20 = arith.cmpi ugt, %19, %dim : index
      %21 = scf.if %20 -> (memref<?xindex>) {
        %28 = arith.muli %dim, %c2 : index
        %29 = memref.realloc %arg1(%28) : memref<?xindex> to memref<?xindex>
        scf.yield %29 : memref<?xindex>
      } else {
        scf.yield %arg1 : memref<?xindex>
      }
      memref.store %arg6, %21[%18] : memref<?xindex>
      %22 = sparse_tensor.storage_specifier.set %arg5  crd_mem_sz at 0 with %19 : !sparse_tensor.storage_specifier<#sparse_tensor.encoding<{ lvlTypes = [ "compressed", "compressed", "dense" ] }>>
      %23 = sparse_tensor.storage_specifier.get %22  pos_mem_sz at 1 : !sparse_tensor.storage_specifier<#sparse_tensor.encoding<{ lvlTypes = [ "compressed", "compressed", "dense" ] }>>
      %dim_0 = memref.dim %arg2, %c0 : memref<?xindex>
      %24 = arith.addi %23, %c1 : index
      %25 = arith.cmpi ugt, %24, %dim_0 : index
      %26 = scf.if %25 -> (memref<?xindex>) {
        %28 = arith.muli %dim_0, %c2 : index
        %29 = memref.realloc %arg2(%28) : memref<?xindex> to memref<?xindex>
        scf.yield %29 : memref<?xindex>
      } else {
        scf.yield %arg2 : memref<?xindex>
      }
      memref.store %c0, %26[%23] : memref<?xindex>
      %27 = sparse_tensor.storage_specifier.set %22  pos_mem_sz at 1 with %24 : !sparse_tensor.storage_specifier<#sparse_tensor.encoding<{ lvlTypes = [ "compressed", "compressed", "dense" ] }>>
      scf.yield %arg0, %21, %26, %arg3, %arg4, %27, %2 : memref<?xindex>, memref<?xindex>, memref<?xindex>, memref<?xindex>, memref<?xf32>, !sparse_tensor.storage_specifier<#sparse_tensor.encoding<{ lvlTypes = [ "compressed", "compressed", "dense" ] }>>, index
    }
    %7 = arith.addi %6#6, %c1 : index
    %8 = memref.load %6#2[%6#6] : memref<?xindex>
    %9 = memref.load %6#2[%7] : memref<?xindex>
    %10 = sparse_tensor.storage_specifier.get %6#5  crd_mem_sz at 1 : !sparse_tensor.storage_specifier<#sparse_tensor.encoding<{ lvlTypes = [ "compressed", "compressed", "dense" ] }>>
    %11 = arith.subi %9, %c1 : index
    %12 = arith.cmpi ult, %8, %9 : index
    %13 = scf.if %12 -> (i1) {
      %17 = memref.load %6#3[%11] : memref<?xindex>
      %18 = arith.cmpi eq, %17, %arg7 : index
      scf.yield %18 : i1
    } else {
      memref.store %10, %6#2[%6#6] : memref<?xindex>
      scf.yield %false : i1
    }
    %14:7 = scf.if %13 -> (memref<?xindex>, memref<?xindex>, memref<?xindex>, memref<?xindex>, memref<?xf32>, !sparse_tensor.storage_specifier<#sparse_tensor.encoding<{ lvlTypes = [ "compressed", "compressed", "dense" ] }>>, index) {
      scf.yield %6#0, %6#1, %6#2, %6#3, %6#4, %6#5, %11 : memref<?xindex>, memref<?xindex>, memref<?xindex>, memref<?xindex>, memref<?xf32>, !sparse_tensor.storage_specifier<#sparse_tensor.encoding<{ lvlTypes = [ "compressed", "compressed", "dense" ] }>>, index
    } else {
      %17 = arith.addi %10, %c1 : index
      memref.store %17, %6#2[%7] : memref<?xindex>
      %18 = sparse_tensor.storage_specifier.get %6#5  crd_mem_sz at 1 : !sparse_tensor.storage_specifier<#sparse_tensor.encoding<{ lvlTypes = [ "compressed", "compressed", "dense" ] }>>
      %dim = memref.dim %6#3, %c0 : memref<?xindex>
      %19 = arith.addi %18, %c1 : index
      %20 = arith.cmpi ugt, %19, %dim : index
      %21 = scf.if %20 -> (memref<?xindex>) {
        %28 = arith.muli %dim, %c2 : index
        %29 = memref.realloc %6#3(%28) : memref<?xindex> to memref<?xindex>
        scf.yield %29 : memref<?xindex>
      } else {
        scf.yield %6#3 : memref<?xindex>
      }
      memref.store %arg7, %21[%18] : memref<?xindex>
      %22 = sparse_tensor.storage_specifier.set %6#5  crd_mem_sz at 1 with %19 : !sparse_tensor.storage_specifier<#sparse_tensor.encoding<{ lvlTypes = [ "compressed", "compressed", "dense" ] }>>
      %23 = sparse_tensor.storage_specifier.get %22  val_mem_sz : !sparse_tensor.storage_specifier<#sparse_tensor.encoding<{ lvlTypes = [ "compressed", "compressed", "dense" ] }>>
      %dim_0 = memref.dim %6#4, %c0 : memref<?xf32>
      %24 = arith.addi %23, %c32 : index
      %25 = arith.cmpi ugt, %24, %dim_0 : index
      %26 = scf.if %25 -> (memref<?xf32>) {
        %28 = scf.while (%arg10 = %dim_0) : (index) -> index {
          %30 = arith.muli %arg10, %c2 : index
          %31 = arith.cmpi ugt, %24, %30 : index
          scf.condition(%31) %30 : index
        } do {
        ^bb0(%arg10: index):
          scf.yield %arg10 : index
        }
        %29 = memref.realloc %6#4(%28) : memref<?xf32> to memref<?xf32>
        scf.yield %29 : memref<?xf32>
      } else {
        scf.yield %6#4 : memref<?xf32>
      }
      %subview = memref.subview %26[%23] [%c32] [%c1] : memref<?xf32> to memref<?xf32, strided<[?], offset: ?>>
      linalg.fill ins(%cst : f32) outs(%subview : memref<?xf32, strided<[?], offset: ?>>)
      %27 = sparse_tensor.storage_specifier.set %22  val_mem_sz with %24 : !sparse_tensor.storage_specifier<#sparse_tensor.encoding<{ lvlTypes = [ "compressed", "compressed", "dense" ] }>>
      scf.yield %6#0, %6#1, %6#2, %21, %26, %27, %10 : memref<?xindex>, memref<?xindex>, memref<?xindex>, memref<?xindex>, memref<?xf32>, !sparse_tensor.storage_specifier<#sparse_tensor.encoding<{ lvlTypes = [ "compressed", "compressed", "dense" ] }>>, index
    }
    %15 = arith.muli %14#6, %c32 : index
    %16 = arith.addi %15, %arg8 : index
    memref.store %arg9, %14#4[%16] : memref<?xf32>
    return %14#0, %14#1, %14#2, %14#3, %14#4, %14#5 : memref<?xindex>, memref<?xindex>, memref<?xindex>, memref<?xindex>, memref<?xf32>, !sparse_tensor.storage_specifier<#sparse_tensor.encoding<{ lvlTypes = [ "compressed", "compressed", "dense" ] }>>
  }
  func.func private @_sparse_binary_search_1_index(%arg0: index, %arg1: index, %arg2: memref<?xindex>) -> index {
    %c1 = arith.constant 1 : index
    %0:2 = scf.while (%arg3 = %arg0, %arg4 = %arg1) : (index, index) -> (index, index) {
      %1 = arith.cmpi ult, %arg3, %arg4 : index
      scf.condition(%1) %arg3, %arg4 : index, index
    } do {
    ^bb0(%arg3: index, %arg4: index):
      %1 = arith.addi %arg3, %arg4 : index
      %2 = arith.shrui %1, %c1 : index
      %3 = arith.addi %2, %c1 : index
      %4 = memref.load %arg2[%arg1] : memref<?xindex>
      %5 = memref.load %arg2[%2] : memref<?xindex>
      %6 = arith.cmpi ult, %4, %5 : index
      %7 = arith.select %6, %arg3, %3 : index
      %8 = arith.select %6, %2, %arg4 : index
      scf.yield %7, %8 : index, index
    }
    return %0#0 : index
  }
  func.func private @_sparse_sort_stable_1_index(%arg0: index, %arg1: index, %arg2: memref<?xindex>) {
    %c1 = arith.constant 1 : index
    %c0 = arith.constant 0 : index
    %0 = arith.addi %arg0, %c1 : index
    scf.for %arg3 = %0 to %arg1 step %c1 {
      %1 = func.call @_sparse_binary_search_1_index(%arg0, %arg3, %arg2) : (index, index, memref<?xindex>) -> index
      %2 = memref.load %arg2[%arg3] : memref<?xindex>
      %3 = arith.subi %arg3, %1 : index
      scf.for %arg4 = %c0 to %3 step %c1 {
        %4 = arith.subi %arg3, %arg4 : index
        %5 = arith.subi %4, %c1 : index
        %6 = memref.load %arg2[%5] : memref<?xindex>
        memref.store %6, %arg2[%4] : memref<?xindex>
      }
      memref.store %2, %arg2[%1] : memref<?xindex>
    }
    return
  }
  func.func private @_sparse_shift_down_1_index(%arg0: index, %arg1: index, %arg2: memref<?xindex>, %arg3: index) {
    %c2 = arith.constant 2 : index
    %c1 = arith.constant 1 : index
    %0 = arith.cmpi uge, %arg3, %c2 : index
    scf.if %0 {
      %1 = arith.subi %arg1, %arg0 : index
      %2 = arith.subi %arg3, %c2 : index
      %3 = arith.shrui %2, %c1 : index
      %4 = arith.cmpi uge, %3, %1 : index
      scf.if %4 {
        %5 = arith.shli %1, %c1 : index
        %6 = arith.addi %5, %c1 : index
        %7 = arith.addi %6, %arg0 : index
        %8 = arith.addi %6, %c1 : index
        %9 = arith.cmpi ult, %8, %arg3 : index
        %10:2 = scf.if %9 -> (index, index) {
          %12 = arith.addi %8, %arg0 : index
          %13 = memref.load %arg2[%7] : memref<?xindex>
          %14 = memref.load %arg2[%12] : memref<?xindex>
          %15 = arith.cmpi ult, %13, %14 : index
          %16:2 = scf.if %15 -> (index, index) {
            scf.yield %8, %12 : index, index
          } else {
            scf.yield %6, %7 : index, index
          }
          scf.yield %16#0, %16#1 : index, index
        } else {
          scf.yield %6, %7 : index, index
        }
        %11:3 = scf.while (%arg4 = %arg1, %arg5 = %10#0, %arg6 = %10#1) : (index, index, index) -> (index, index, index) {
          %12 = memref.load %arg2[%arg4] : memref<?xindex>
          %13 = memref.load %arg2[%arg6] : memref<?xindex>
          %14 = arith.cmpi ult, %12, %13 : index
          scf.condition(%14) %arg4, %arg5, %arg6 : index, index, index
        } do {
        ^bb0(%arg4: index, %arg5: index, %arg6: index):
          %12 = memref.load %arg2[%arg4] : memref<?xindex>
          %13 = memref.load %arg2[%arg6] : memref<?xindex>
          memref.store %13, %arg2[%arg4] : memref<?xindex>
          memref.store %12, %arg2[%arg6] : memref<?xindex>
          %14 = arith.cmpi uge, %3, %arg5 : index
          %15:2 = scf.if %14 -> (index, index) {
            %16 = arith.shli %arg5, %c1 : index
            %17 = arith.addi %16, %c1 : index
            %18 = arith.addi %17, %arg0 : index
            %19 = arith.addi %17, %c1 : index
            %20 = arith.cmpi ult, %19, %arg3 : index
            %21:2 = scf.if %20 -> (index, index) {
              %22 = arith.addi %19, %arg0 : index
              %23 = memref.load %arg2[%18] : memref<?xindex>
              %24 = memref.load %arg2[%22] : memref<?xindex>
              %25 = arith.cmpi ult, %23, %24 : index
              %26:2 = scf.if %25 -> (index, index) {
                scf.yield %19, %22 : index, index
              } else {
                scf.yield %17, %18 : index, index
              }
              scf.yield %26#0, %26#1 : index, index
            } else {
              scf.yield %17, %18 : index, index
            }
            scf.yield %21#0, %21#1 : index, index
          } else {
            scf.yield %arg5, %arg6 : index, index
          }
          scf.yield %arg6, %15#0, %15#1 : index, index, index
        }
      }
    }
    return
  }
  func.func private @_sparse_heap_sort_1_index(%arg0: index, %arg1: index, %arg2: memref<?xindex>) {
    %c0 = arith.constant 0 : index
    %c1 = arith.constant 1 : index
    %c2 = arith.constant 2 : index
    %0 = arith.subi %arg1, %arg0 : index
    %1 = arith.subi %0, %c2 : index
    %2 = arith.shrui %1, %c1 : index
    %3 = arith.addi %2, %c1 : index
    scf.for %arg3 = %c0 to %3 step %c1 {
      %5 = arith.subi %2, %arg3 : index
      %6 = arith.addi %arg0, %5 : index
      func.call @_sparse_shift_down_1_index(%arg0, %6, %arg2, %0) : (index, index, memref<?xindex>, index) -> ()
    }
    %4 = arith.subi %0, %c1 : index
    scf.for %arg3 = %c0 to %4 step %c1 {
      %5 = arith.subi %0, %arg3 : index
      %6 = arith.addi %arg0, %5 : index
      %7 = arith.subi %6, %c1 : index
      %8 = memref.load %arg2[%arg0] : memref<?xindex>
      %9 = memref.load %arg2[%7] : memref<?xindex>
      memref.store %9, %arg2[%arg0] : memref<?xindex>
      memref.store %8, %arg2[%7] : memref<?xindex>
      %10 = arith.subi %5, %c1 : index
      func.call @_sparse_shift_down_1_index(%arg0, %arg0, %arg2, %10) : (index, index, memref<?xindex>, index) -> ()
    }
    return
  }
  func.func private @_sparse_partition_1_index(%arg0: index, %arg1: index, %arg2: memref<?xindex>) -> index {
    %c1 = arith.constant 1 : index
    %c1000 = arith.constant 1000 : index
    %c-1 = arith.constant -1 : index
    %0 = arith.addi %arg0, %arg1 : index
    %1 = arith.shrui %0, %c1 : index
    %2 = arith.subi %arg1, %c1 : index
    %3 = arith.subi %arg1, %arg0 : index
    %4 = arith.cmpi ult, %3, %c1000 : index
    scf.if %4 {
      %6 = memref.load %arg2[%1] : memref<?xindex>
      %7 = memref.load %arg2[%arg0] : memref<?xindex>
      %8 = arith.cmpi ult, %6, %7 : index
      scf.if %8 {
        %12 = memref.load %arg2[%1] : memref<?xindex>
        %13 = memref.load %arg2[%arg0] : memref<?xindex>
        memref.store %13, %arg2[%1] : memref<?xindex>
        memref.store %12, %arg2[%arg0] : memref<?xindex>
      }
      %9 = memref.load %arg2[%2] : memref<?xindex>
      %10 = memref.load %arg2[%1] : memref<?xindex>
      %11 = arith.cmpi ult, %9, %10 : index
      scf.if %11 {
        %12 = memref.load %arg2[%2] : memref<?xindex>
        %13 = memref.load %arg2[%1] : memref<?xindex>
        memref.store %13, %arg2[%2] : memref<?xindex>
        memref.store %12, %arg2[%1] : memref<?xindex>
        %14 = memref.load %arg2[%1] : memref<?xindex>
        %15 = memref.load %arg2[%arg0] : memref<?xindex>
        %16 = arith.cmpi ult, %14, %15 : index
        scf.if %16 {
          %17 = memref.load %arg2[%1] : memref<?xindex>
          %18 = memref.load %arg2[%arg0] : memref<?xindex>
          memref.store %18, %arg2[%1] : memref<?xindex>
          memref.store %17, %arg2[%arg0] : memref<?xindex>
        }
      }
    } else {
      %6 = arith.addi %arg0, %arg1 : index
      %7 = arith.shrui %6, %c1 : index
      %8 = arith.addi %1, %arg1 : index
      %9 = arith.shrui %8, %c1 : index
      %10 = memref.load %arg2[%7] : memref<?xindex>
      %11 = memref.load %arg2[%arg0] : memref<?xindex>
      %12 = arith.cmpi ult, %10, %11 : index
      scf.if %12 {
        %22 = memref.load %arg2[%7] : memref<?xindex>
        %23 = memref.load %arg2[%arg0] : memref<?xindex>
        memref.store %23, %arg2[%7] : memref<?xindex>
        memref.store %22, %arg2[%arg0] : memref<?xindex>
      }
      %13 = memref.load %arg2[%1] : memref<?xindex>
      %14 = memref.load %arg2[%7] : memref<?xindex>
      %15 = arith.cmpi ult, %13, %14 : index
      scf.if %15 {
        %22 = memref.load %arg2[%1] : memref<?xindex>
        %23 = memref.load %arg2[%7] : memref<?xindex>
        memref.store %23, %arg2[%1] : memref<?xindex>
        memref.store %22, %arg2[%7] : memref<?xindex>
        %24 = memref.load %arg2[%7] : memref<?xindex>
        %25 = memref.load %arg2[%arg0] : memref<?xindex>
        %26 = arith.cmpi ult, %24, %25 : index
        scf.if %26 {
          %27 = memref.load %arg2[%7] : memref<?xindex>
          %28 = memref.load %arg2[%arg0] : memref<?xindex>
          memref.store %28, %arg2[%7] : memref<?xindex>
          memref.store %27, %arg2[%arg0] : memref<?xindex>
        }
      }
      %16 = memref.load %arg2[%9] : memref<?xindex>
      %17 = memref.load %arg2[%1] : memref<?xindex>
      %18 = arith.cmpi ult, %16, %17 : index
      scf.if %18 {
        %22 = memref.load %arg2[%9] : memref<?xindex>
        %23 = memref.load %arg2[%1] : memref<?xindex>
        memref.store %23, %arg2[%9] : memref<?xindex>
        memref.store %22, %arg2[%1] : memref<?xindex>
        %24 = memref.load %arg2[%1] : memref<?xindex>
        %25 = memref.load %arg2[%7] : memref<?xindex>
        %26 = arith.cmpi ult, %24, %25 : index
        scf.if %26 {
          %27 = memref.load %arg2[%1] : memref<?xindex>
          %28 = memref.load %arg2[%7] : memref<?xindex>
          memref.store %28, %arg2[%1] : memref<?xindex>
          memref.store %27, %arg2[%7] : memref<?xindex>
          %29 = memref.load %arg2[%7] : memref<?xindex>
          %30 = memref.load %arg2[%arg0] : memref<?xindex>
          %31 = arith.cmpi ult, %29, %30 : index
          scf.if %31 {
            %32 = memref.load %arg2[%7] : memref<?xindex>
            %33 = memref.load %arg2[%arg0] : memref<?xindex>
            memref.store %33, %arg2[%7] : memref<?xindex>
            memref.store %32, %arg2[%arg0] : memref<?xindex>
          }
        }
      }
      %19 = memref.load %arg2[%2] : memref<?xindex>
      %20 = memref.load %arg2[%9] : memref<?xindex>
      %21 = arith.cmpi ult, %19, %20 : index
      scf.if %21 {
        %22 = memref.load %arg2[%2] : memref<?xindex>
        %23 = memref.load %arg2[%9] : memref<?xindex>
        memref.store %23, %arg2[%2] : memref<?xindex>
        memref.store %22, %arg2[%9] : memref<?xindex>
        %24 = memref.load %arg2[%9] : memref<?xindex>
        %25 = memref.load %arg2[%1] : memref<?xindex>
        %26 = arith.cmpi ult, %24, %25 : index
        scf.if %26 {
          %27 = memref.load %arg2[%9] : memref<?xindex>
          %28 = memref.load %arg2[%1] : memref<?xindex>
          memref.store %28, %arg2[%9] : memref<?xindex>
          memref.store %27, %arg2[%1] : memref<?xindex>
          %29 = memref.load %arg2[%1] : memref<?xindex>
          %30 = memref.load %arg2[%7] : memref<?xindex>
          %31 = arith.cmpi ult, %29, %30 : index
          scf.if %31 {
            %32 = memref.load %arg2[%1] : memref<?xindex>
            %33 = memref.load %arg2[%7] : memref<?xindex>
            memref.store %33, %arg2[%1] : memref<?xindex>
            memref.store %32, %arg2[%7] : memref<?xindex>
            %34 = memref.load %arg2[%7] : memref<?xindex>
            %35 = memref.load %arg2[%arg0] : memref<?xindex>
            %36 = arith.cmpi ult, %34, %35 : index
            scf.if %36 {
              %37 = memref.load %arg2[%7] : memref<?xindex>
              %38 = memref.load %arg2[%arg0] : memref<?xindex>
              memref.store %38, %arg2[%7] : memref<?xindex>
              memref.store %37, %arg2[%arg0] : memref<?xindex>
            }
          }
        }
      }
    }
    %5:3 = scf.while (%arg3 = %arg0, %arg4 = %2, %arg5 = %1) : (index, index, index) -> (index, index, index) {
      %6 = arith.cmpi ult, %arg3, %arg4 : index
      scf.condition(%6) %arg3, %arg4, %arg5 : index, index, index
    } do {
    ^bb0(%arg3: index, %arg4: index, %arg5: index):
      %6 = scf.while (%arg6 = %arg3) : (index) -> index {
        %16 = memref.load %arg2[%arg6] : memref<?xindex>
        %17 = memref.load %arg2[%arg5] : memref<?xindex>
        %18 = arith.cmpi ult, %16, %17 : index
        scf.condition(%18) %arg6 : index
      } do {
      ^bb0(%arg6: index):
        %16 = arith.addi %arg6, %c1 : index
        scf.yield %16 : index
      }
      %7 = memref.load %arg2[%6] : memref<?xindex>
      %8 = memref.load %arg2[%arg5] : memref<?xindex>
      %9 = arith.cmpi eq, %7, %8 : index
      %10 = scf.while (%arg6 = %arg4) : (index) -> index {
        %16 = memref.load %arg2[%arg5] : memref<?xindex>
        %17 = memref.load %arg2[%arg6] : memref<?xindex>
        %18 = arith.cmpi ult, %16, %17 : index
        scf.condition(%18) %arg6 : index
      } do {
      ^bb0(%arg6: index):
        %16 = arith.addi %arg6, %c-1 : index
        scf.yield %16 : index
      }
      %11 = memref.load %arg2[%10] : memref<?xindex>
      %12 = memref.load %arg2[%arg5] : memref<?xindex>
      %13 = arith.cmpi eq, %11, %12 : index
      %14 = arith.cmpi ult, %6, %10 : index
      %15:3 = scf.if %14 -> (index, index, index) {
        %16 = memref.load %arg2[%6] : memref<?xindex>
        %17 = memref.load %arg2[%10] : memref<?xindex>
        memref.store %17, %arg2[%6] : memref<?xindex>
        memref.store %16, %arg2[%10] : memref<?xindex>
        %18 = arith.cmpi eq, %6, %arg5 : index
        %19 = scf.if %18 -> (index) {
          scf.yield %10 : index
        } else {
          %22 = arith.cmpi eq, %10, %arg5 : index
          %23 = scf.if %22 -> (index) {
            scf.yield %6 : index
          } else {
            scf.yield %arg5 : index
          }
          scf.yield %23 : index
        }
        %20 = arith.andi %9, %13 : i1
        %21:2 = scf.if %20 -> (index, index) {
          %22 = arith.addi %6, %c1 : index
          %23 = arith.subi %10, %c1 : index
          scf.yield %22, %23 : index, index
        } else {
          scf.yield %6, %10 : index, index
        }
        scf.yield %21#0, %21#1, %19 : index, index, index
      } else {
        scf.yield %6, %10, %arg5 : index, index, index
      }
      scf.yield %15#0, %15#1, %15#2 : index, index, index
    }
    return %5#2 : index
  }
  func.func private @_sparse_hybrid_qsort_1_index(%arg0: index, %arg1: index, %arg2: memref<?xindex>, %arg3: i64) {
    %c30 = arith.constant 30 : index
    %c1_i64 = arith.constant 1 : i64
    %c0_i64 = arith.constant 0 : i64
    %c1 = arith.constant 1 : index
    %c0 = arith.constant 0 : index
    %0:2 = scf.while (%arg4 = %arg0, %arg5 = %arg1) : (index, index) -> (index, index) {
      %1 = arith.addi %arg4, %c1 : index
      %2 = arith.cmpi ult, %1, %arg5 : index
      scf.condition(%2) %arg4, %arg5 : index, index
    } do {
    ^bb0(%arg4: index, %arg5: index):
      %1 = arith.subi %arg5, %arg4 : index
      %2 = arith.cmpi ule, %1, %c30 : index
      %3:2 = scf.if %2 -> (index, index) {
        func.call @_sparse_sort_stable_1_index(%arg4, %arg5, %arg2) : (index, index, memref<?xindex>) -> ()
        scf.yield %arg4, %arg4 : index, index
      } else {
        %4 = arith.subi %arg3, %c1_i64 : i64
        %5 = arith.cmpi ule, %4, %c0_i64 : i64
        %6:2 = scf.if %5 -> (index, index) {
          func.call @_sparse_heap_sort_1_index(%arg4, %arg5, %arg2) : (index, index, memref<?xindex>) -> ()
          scf.yield %arg4, %arg4 : index, index
        } else {
          %7 = func.call @_sparse_partition_1_index(%arg4, %arg5, %arg2) : (index, index, memref<?xindex>) -> index
          %8 = arith.addi %7, %c1 : index
          %9 = arith.subi %7, %arg4 : index
          %10 = arith.subi %arg5, %7 : index
          %11 = arith.cmpi ule, %9, %10 : index
          %12:2 = scf.if %11 -> (index, index) {
            %13 = arith.cmpi ne, %9, %c0 : index
            scf.if %13 {
              func.call @_sparse_hybrid_qsort_1_index(%arg4, %7, %arg2, %4) : (index, index, memref<?xindex>, i64) -> ()
            }
            scf.yield %8, %arg5 : index, index
          } else {
            %13 = arith.cmpi ne, %10, %c0 : index
            scf.if %13 {
              func.call @_sparse_hybrid_qsort_1_index(%8, %arg5, %arg2, %4) : (index, index, memref<?xindex>, i64) -> ()
            }
            scf.yield %arg4, %7 : index, index
          }
          scf.yield %12#0, %12#1 : index, index
        }
        scf.yield %6#0, %6#1 : index, index
      }
      scf.yield %3#0, %3#1 : index, index
    }
    return
  }
  func.func @MTTKRP.A.0.main(%arg0: memref<?xindex>, %arg1: memref<?xindex>, %arg2: memref<?xindex>, %arg3: memref<?xindex>, %arg4: memref<?xindex>, %arg5: memref<?xindex>, %arg6: memref<?xf32>, %arg7: !sparse_tensor.storage_specifier<#sparse_tensor.encoding<{ lvlTypes = [ "compressed", "compressed", "compressed" ] }>>, %arg8: memref<?xf32>, %arg9: !sparse_tensor.storage_specifier<#sparse_tensor.encoding<{ lvlTypes = [ "dense", "dense" ] }>>, %arg10: memref<?xf32>, %arg11: !sparse_tensor.storage_specifier<#sparse_tensor.encoding<{ lvlTypes = [ "dense", "dense" ] }>>) -> (memref<?xf32>, !sparse_tensor.storage_specifier<#sparse_tensor.encoding<{ lvlTypes = [ "dense", "dense" ] }>>) attributes {llvm.emit_c_interface} {
    %c1 = arith.constant 1 : index
    %c2 = arith.constant 2 : index
    %c0 = arith.constant 0 : index
    %c64_i64 = arith.constant 64 : i64
    %c4096 = arith.constant 4096 : index
    %c128 = arith.constant 128 : index
    %cst = arith.constant 0.000000e+00 : f32
    %c32 = arith.constant 32 : index
    %false = arith.constant false
    %true = arith.constant true
    %c16 = arith.constant 16 : index
    %alloc = memref.alloc(%c16) : memref<?xindex>
    %alloc_0 = memref.alloc(%c16) : memref<?xindex>
    %alloc_1 = memref.alloc(%c16) : memref<?xindex>
    %alloc_2 = memref.alloc(%c16) : memref<?xindex>
    %alloc_3 = memref.alloc(%c16) : memref<?xf32>
    %0 = sparse_tensor.storage_specifier.init : !sparse_tensor.storage_specifier<#sparse_tensor.encoding<{ lvlTypes = [ "compressed", "compressed", "dense" ] }>>
    %1 = sparse_tensor.storage_specifier.set %0  lvl_sz at 0 with %c128 : !sparse_tensor.storage_specifier<#sparse_tensor.encoding<{ lvlTypes = [ "compressed", "compressed", "dense" ] }>>
    %2 = sparse_tensor.storage_specifier.get %1  pos_mem_sz at 0 : !sparse_tensor.storage_specifier<#sparse_tensor.encoding<{ lvlTypes = [ "compressed", "compressed", "dense" ] }>>
    %3 = arith.addi %2, %c1 : index
    %4 = arith.cmpi ugt, %3, %c16 : index
    %5 = scf.if %4 -> (memref<?xindex>) {
      %34 = memref.realloc %alloc(%c32) : memref<?xindex> to memref<?xindex>
      scf.yield %34 : memref<?xindex>
    } else {
      scf.yield %alloc : memref<?xindex>
    }
    memref.store %c0, %5[%2] : memref<?xindex>
    %6 = sparse_tensor.storage_specifier.set %1  pos_mem_sz at 0 with %3 : !sparse_tensor.storage_specifier<#sparse_tensor.encoding<{ lvlTypes = [ "compressed", "compressed", "dense" ] }>>
    %7 = sparse_tensor.storage_specifier.set %6  lvl_sz at 1 with %c128 : !sparse_tensor.storage_specifier<#sparse_tensor.encoding<{ lvlTypes = [ "compressed", "compressed", "dense" ] }>>
    %8 = sparse_tensor.storage_specifier.get %7  pos_mem_sz at 1 : !sparse_tensor.storage_specifier<#sparse_tensor.encoding<{ lvlTypes = [ "compressed", "compressed", "dense" ] }>>
    %9 = arith.addi %8, %c1 : index
    %10 = arith.cmpi ugt, %9, %c16 : index
    %11 = scf.if %10 -> (memref<?xindex>) {
      %34 = memref.realloc %alloc_1(%c32) : memref<?xindex> to memref<?xindex>
      scf.yield %34 : memref<?xindex>
    } else {
      scf.yield %alloc_1 : memref<?xindex>
    }
    memref.store %c0, %11[%8] : memref<?xindex>
    %12 = sparse_tensor.storage_specifier.set %7  pos_mem_sz at 1 with %9 : !sparse_tensor.storage_specifier<#sparse_tensor.encoding<{ lvlTypes = [ "compressed", "compressed", "dense" ] }>>
    %13 = sparse_tensor.storage_specifier.set %12  lvl_sz at 2 with %c32 : !sparse_tensor.storage_specifier<#sparse_tensor.encoding<{ lvlTypes = [ "compressed", "compressed", "dense" ] }>>
    %dim = memref.dim %5, %c0 : memref<?xindex>
    %14 = arith.addi %3, %c1 : index
    %15 = arith.cmpi ugt, %14, %dim : index
    %16 = scf.if %15 -> (memref<?xindex>) {
      %34 = arith.muli %dim, %c2 : index
      %35 = memref.realloc %5(%34) : memref<?xindex> to memref<?xindex>
      scf.yield %35 : memref<?xindex>
    } else {
      scf.yield %5 : memref<?xindex>
    }
    memref.store %c0, %16[%3] : memref<?xindex>
    %17 = sparse_tensor.storage_specifier.set %13  pos_mem_sz at 0 with %14 : !sparse_tensor.storage_specifier<#sparse_tensor.encoding<{ lvlTypes = [ "compressed", "compressed", "dense" ] }>>
    %alloc_4 = memref.alloc(%c32) : memref<?xf32>
    %alloc_5 = memref.alloc(%c32) : memref<?xi1>
    %alloc_6 = memref.alloc(%c32) : memref<?xindex>
    linalg.fill ins(%cst : f32) outs(%alloc_4 : memref<?xf32>)
    linalg.fill ins(%false : i1) outs(%alloc_5 : memref<?xi1>)
    %18 = memref.load %arg0[%c0] : memref<?xindex>
    %19 = memref.load %arg0[%c1] : memref<?xindex>
    %20:6 = scf.for %arg12 = %18 to %19 step %c1 iter_args(%arg13 = %16, %arg14 = %alloc_0, %arg15 = %11, %arg16 = %alloc_2, %arg17 = %alloc_3, %arg18 = %17) -> (memref<?xindex>, memref<?xindex>, memref<?xindex>, memref<?xindex>, memref<?xf32>, !sparse_tensor.storage_specifier<#sparse_tensor.encoding<{ lvlTypes = [ "compressed", "compressed", "dense" ] }>>) {
      %34 = memref.load %arg1[%arg12] : memref<?xindex>
      %35 = memref.load %arg2[%arg12] : memref<?xindex>
      %36 = arith.addi %arg12, %c1 : index
      %37 = memref.load %arg2[%36] : memref<?xindex>
      %38:6 = scf.for %arg19 = %35 to %37 step %c1 iter_args(%arg20 = %arg13, %arg21 = %arg14, %arg22 = %arg15, %arg23 = %arg16, %arg24 = %arg17, %arg25 = %arg18) -> (memref<?xindex>, memref<?xindex>, memref<?xindex>, memref<?xindex>, memref<?xf32>, !sparse_tensor.storage_specifier<#sparse_tensor.encoding<{ lvlTypes = [ "compressed", "compressed", "dense" ] }>>) {
        %39 = memref.load %arg3[%arg19] : memref<?xindex>
        %40 = memref.load %arg4[%arg19] : memref<?xindex>
        %41 = arith.addi %arg19, %c1 : index
        %42 = memref.load %arg4[%41] : memref<?xindex>
        %43 = scf.for %arg26 = %40 to %42 step %c1 iter_args(%arg27 = %c0) -> (index) {
          %48 = memref.load %arg5[%arg26] : memref<?xindex>
          %49 = memref.load %arg6[%arg26] : memref<?xf32>
          %50 = scf.for %arg28 = %c0 to %c32 step %c1 iter_args(%arg29 = %arg27) -> (index) {
            %51 = arith.muli %48, %c32 : index
            %52 = arith.addi %51, %arg28 : index
            %53 = memref.load %alloc_4[%arg28] : memref<?xf32>
            %54 = memref.load %arg8[%52] : memref<?xf32>
            %55 = arith.mulf %49, %54 : f32
            %56 = arith.addf %53, %55 : f32
            %57 = memref.load %alloc_5[%arg28] : memref<?xi1>
            %58 = arith.cmpi eq, %57, %false : i1
            %59 = scf.if %58 -> (index) {
              memref.store %true, %alloc_5[%arg28] : memref<?xi1>
              memref.store %arg28, %alloc_6[%arg29] : memref<?xindex>
              %60 = arith.addi %arg29, %c1 : index
              scf.yield %60 : index
            } else {
              scf.yield %arg29 : index
            }
            memref.store %56, %alloc_4[%arg28] : memref<?xf32>
            scf.yield %59 : index
          } {"Emitted from" = "linalg.generic"}
          scf.yield %50 : index
        } {"Emitted from" = "linalg.generic"}
        %44 = arith.index_cast %43 : index to i64
        %45 = math.ctlz %44 : i64
        %46 = arith.subi %c64_i64, %45 : i64
        func.call @_sparse_hybrid_qsort_1_index(%c0, %43, %alloc_6, %46) : (index, index, memref<?xindex>, i64) -> ()
        %47:6 = scf.for %arg26 = %c0 to %43 step %c1 iter_args(%arg27 = %arg20, %arg28 = %arg21, %arg29 = %arg22, %arg30 = %arg23, %arg31 = %arg24, %arg32 = %arg25) -> (memref<?xindex>, memref<?xindex>, memref<?xindex>, memref<?xindex>, memref<?xf32>, !sparse_tensor.storage_specifier<#sparse_tensor.encoding<{ lvlTypes = [ "compressed", "compressed", "dense" ] }>>) {
          %48 = memref.load %alloc_6[%arg26] : memref<?xindex>
          %49 = memref.load %alloc_4[%48] : memref<?xf32>
          %50:6 = func.call @_insert_compressed_compressed_dense_128_128_32_f32_0_0(%arg27, %arg28, %arg29, %arg30, %arg31, %arg32, %34, %39, %48, %49) : (memref<?xindex>, memref<?xindex>, memref<?xindex>, memref<?xindex>, memref<?xf32>, !sparse_tensor.storage_specifier<#sparse_tensor.encoding<{ lvlTypes = [ "compressed", "compressed", "dense" ] }>>, index, index, index, f32) -> (memref<?xindex>, memref<?xindex>, memref<?xindex>, memref<?xindex>, memref<?xf32>, !sparse_tensor.storage_specifier<#sparse_tensor.encoding<{ lvlTypes = [ "compressed", "compressed", "dense" ] }>>)
          memref.store %cst, %alloc_4[%48] : memref<?xf32>
          memref.store %false, %alloc_5[%48] : memref<?xi1>
          scf.yield %50#0, %50#1, %50#2, %50#3, %50#4, %50#5 : memref<?xindex>, memref<?xindex>, memref<?xindex>, memref<?xindex>, memref<?xf32>, !sparse_tensor.storage_specifier<#sparse_tensor.encoding<{ lvlTypes = [ "compressed", "compressed", "dense" ] }>>
        }
        scf.yield %47#0, %47#1, %47#2, %47#3, %47#4, %47#5 : memref<?xindex>, memref<?xindex>, memref<?xindex>, memref<?xindex>, memref<?xf32>, !sparse_tensor.storage_specifier<#sparse_tensor.encoding<{ lvlTypes = [ "compressed", "compressed", "dense" ] }>>
      } {"Emitted from" = "linalg.generic"}
      scf.yield %38#0, %38#1, %38#2, %38#3, %38#4, %38#5 : memref<?xindex>, memref<?xindex>, memref<?xindex>, memref<?xindex>, memref<?xf32>, !sparse_tensor.storage_specifier<#sparse_tensor.encoding<{ lvlTypes = [ "compressed", "compressed", "dense" ] }>>
    } {"Emitted from" = "linalg.generic"}
    memref.dealloc %alloc_4 : memref<?xf32>
    memref.dealloc %alloc_5 : memref<?xi1>
    memref.dealloc %alloc_6 : memref<?xindex>
    %21 = sparse_tensor.storage_specifier.get %20#5  pos_mem_sz at 1 : !sparse_tensor.storage_specifier<#sparse_tensor.encoding<{ lvlTypes = [ "compressed", "compressed", "dense" ] }>>
    %22 = memref.load %20#2[%c0] : memref<?xindex>
    %23 = scf.for %arg12 = %c1 to %21 step %c1 iter_args(%arg13 = %22) -> (index) {
      %34 = memref.load %20#2[%arg12] : memref<?xindex>
      %35 = arith.cmpi eq, %34, %c0 : index
      %36 = scf.if %35 -> (index) {
        memref.store %arg13, %20#2[%arg12] : memref<?xindex>
        scf.yield %arg13 : index
      } else {
        scf.yield %34 : index
      }
      scf.yield %36 : index
    }
    %alloc_7 = memref.alloc(%c4096) : memref<?xf32>
    %24 = sparse_tensor.storage_specifier.init : !sparse_tensor.storage_specifier<#sparse_tensor.encoding<{ lvlTypes = [ "dense", "dense" ] }>>
    %25 = sparse_tensor.storage_specifier.set %24  lvl_sz at 0 with %c128 : !sparse_tensor.storage_specifier<#sparse_tensor.encoding<{ lvlTypes = [ "dense", "dense" ] }>>
    %26 = sparse_tensor.storage_specifier.set %25  lvl_sz at 1 with %c32 : !sparse_tensor.storage_specifier<#sparse_tensor.encoding<{ lvlTypes = [ "dense", "dense" ] }>>
    %27 = sparse_tensor.storage_specifier.get %26  val_mem_sz : !sparse_tensor.storage_specifier<#sparse_tensor.encoding<{ lvlTypes = [ "dense", "dense" ] }>>
    %28 = arith.addi %27, %c4096 : index
    %29 = arith.cmpi ugt, %28, %c4096 : index
    %30 = scf.if %29 -> (memref<?xf32>) {
      %34 = scf.while (%arg12 = %c4096) : (index) -> index {
        %36 = arith.muli %arg12, %c2 : index
        %37 = arith.cmpi ugt, %28, %36 : index
        scf.condition(%37) %36 : index
      } do {
      ^bb0(%arg12: index):
        scf.yield %arg12 : index
      }
      %35 = memref.realloc %alloc_7(%34) : memref<?xf32> to memref<?xf32>
      scf.yield %35 : memref<?xf32>
    } else {
      scf.yield %alloc_7 : memref<?xf32>
    }
    %subview = memref.subview %30[%27] [%c4096] [%c1] : memref<?xf32> to memref<?xf32, strided<[?], offset: ?>>
    linalg.fill ins(%cst : f32) outs(%subview : memref<?xf32, strided<[?], offset: ?>>)
    %31 = sparse_tensor.storage_specifier.set %26  val_mem_sz with %28 : !sparse_tensor.storage_specifier<#sparse_tensor.encoding<{ lvlTypes = [ "dense", "dense" ] }>>
    %32 = memref.load %20#0[%c0] : memref<?xindex>
    %33 = memref.load %20#0[%c1] : memref<?xindex>
    scf.parallel (%arg12) = (%32) to (%33) step (%c1) {
      %34 = memref.load %20#1[%arg12] : memref<?xindex>
      %35 = memref.load %20#2[%arg12] : memref<?xindex>
      %36 = arith.addi %arg12, %c1 : index
      %37 = memref.load %20#2[%36] : memref<?xindex>
      scf.parallel (%arg13) = (%35) to (%37) step (%c1) {
        %38 = memref.load %20#3[%arg13] : memref<?xindex>
        scf.parallel (%arg14) = (%c0) to (%c32) step (%c1) {
          %39 = arith.muli %arg13, %c32 : index
          %40 = arith.addi %39, %arg14 : index
          %41 = arith.muli %38, %c32 : index
          %42 = arith.addi %41, %arg14 : index
          %43 = arith.muli %34, %c32 : index
          %44 = arith.addi %43, %arg14 : index
          %45 = memref.load %30[%44] : memref<?xf32>
          %46 = memref.load %20#4[%40] : memref<?xf32>
          %47 = memref.load %arg10[%42] : memref<?xf32>
          %48 = arith.mulf %46, %47 : f32
          %49 = arith.addf %45, %48 : f32
          memref.store %49, %30[%44] : memref<?xf32>
          scf.yield
        } {"Emitted from" = "linalg.generic"}
        scf.yield
      } {"Emitted from" = "linalg.generic"}
      scf.yield
    } {"Emitted from" = "linalg.generic"}
    return %30, %31 : memref<?xf32>, !sparse_tensor.storage_specifier<#sparse_tensor.encoding<{ lvlTypes = [ "dense", "dense" ] }>>
  }
}


// -----// IR Dump After StorageSpecifierToLLVM (sparse-storage-specifier-to-llvm) //----- //
module {
  func.func private @_insert_compressed_compressed_dense_128_128_32_f32_0_0(%arg0: memref<?xindex>, %arg1: memref<?xindex>, %arg2: memref<?xindex>, %arg3: memref<?xindex>, %arg4: memref<?xf32>, %arg5: !llvm.struct<(array<3 x i64>, array<5 x i64>)>, %arg6: index, %arg7: index, %arg8: index, %arg9: f32) -> (memref<?xindex>, memref<?xindex>, memref<?xindex>, memref<?xindex>, memref<?xf32>, !llvm.struct<(array<3 x i64>, array<5 x i64>)>) {
    %c1 = arith.constant 1 : index
    %c2 = arith.constant 2 : index
    %cst = arith.constant 0.000000e+00 : f32
    %c32 = arith.constant 32 : index
    %false = arith.constant false
    %c0 = arith.constant 0 : index
    %0 = memref.load %arg0[%c0] : memref<?xindex>
    %1 = memref.load %arg0[%c1] : memref<?xindex>
    %2 = llvm.extractvalue %arg5[1, 1] : !llvm.struct<(array<3 x i64>, array<5 x i64>)> 
    %3 = arith.index_cast %2 : i64 to index
    %4 = arith.subi %1, %c1 : index
    %5 = arith.cmpi ult, %0, %1 : index
    %6 = scf.if %5 -> (i1) {
      %19 = memref.load %arg1[%4] : memref<?xindex>
      %20 = arith.cmpi eq, %19, %arg6 : index
      scf.yield %20 : i1
    } else {
      scf.yield %false : i1
    }
    %7:7 = scf.if %6 -> (memref<?xindex>, memref<?xindex>, memref<?xindex>, memref<?xindex>, memref<?xf32>, !llvm.struct<(array<3 x i64>, array<5 x i64>)>, index) {
      scf.yield %arg0, %arg1, %arg2, %arg3, %arg4, %arg5, %4 : memref<?xindex>, memref<?xindex>, memref<?xindex>, memref<?xindex>, memref<?xf32>, !llvm.struct<(array<3 x i64>, array<5 x i64>)>, index
    } else {
      %19 = arith.addi %3, %c1 : index
      memref.store %19, %arg0[%c1] : memref<?xindex>
      %20 = llvm.extractvalue %arg5[1, 1] : !llvm.struct<(array<3 x i64>, array<5 x i64>)> 
      %21 = arith.index_cast %20 : i64 to index
      %dim = memref.dim %arg1, %c0 : memref<?xindex>
      %22 = arith.addi %21, %c1 : index
      %23 = arith.cmpi ugt, %22, %dim : index
      %24 = scf.if %23 -> (memref<?xindex>) {
        %34 = arith.muli %dim, %c2 : index
        %35 = memref.realloc %arg1(%34) : memref<?xindex> to memref<?xindex>
        scf.yield %35 : memref<?xindex>
      } else {
        scf.yield %arg1 : memref<?xindex>
      }
      memref.store %arg6, %24[%21] : memref<?xindex>
      %25 = arith.index_cast %22 : index to i64
      %26 = llvm.insertvalue %25, %arg5[1, 1] : !llvm.struct<(array<3 x i64>, array<5 x i64>)> 
      %27 = llvm.extractvalue %26[1, 2] : !llvm.struct<(array<3 x i64>, array<5 x i64>)> 
      %28 = arith.index_cast %27 : i64 to index
      %dim_0 = memref.dim %arg2, %c0 : memref<?xindex>
      %29 = arith.addi %28, %c1 : index
      %30 = arith.cmpi ugt, %29, %dim_0 : index
      %31 = scf.if %30 -> (memref<?xindex>) {
        %34 = arith.muli %dim_0, %c2 : index
        %35 = memref.realloc %arg2(%34) : memref<?xindex> to memref<?xindex>
        scf.yield %35 : memref<?xindex>
      } else {
        scf.yield %arg2 : memref<?xindex>
      }
      memref.store %c0, %31[%28] : memref<?xindex>
      %32 = arith.index_cast %29 : index to i64
      %33 = llvm.insertvalue %32, %26[1, 2] : !llvm.struct<(array<3 x i64>, array<5 x i64>)> 
      scf.yield %arg0, %24, %31, %arg3, %arg4, %33, %3 : memref<?xindex>, memref<?xindex>, memref<?xindex>, memref<?xindex>, memref<?xf32>, !llvm.struct<(array<3 x i64>, array<5 x i64>)>, index
    }
    %8 = arith.addi %7#6, %c1 : index
    %9 = memref.load %7#2[%7#6] : memref<?xindex>
    %10 = memref.load %7#2[%8] : memref<?xindex>
    %11 = llvm.extractvalue %7#5[1, 3] : !llvm.struct<(array<3 x i64>, array<5 x i64>)> 
    %12 = arith.index_cast %11 : i64 to index
    %13 = arith.subi %10, %c1 : index
    %14 = arith.cmpi ult, %9, %10 : index
    %15 = scf.if %14 -> (i1) {
      %19 = memref.load %7#3[%13] : memref<?xindex>
      %20 = arith.cmpi eq, %19, %arg7 : index
      scf.yield %20 : i1
    } else {
      memref.store %12, %7#2[%7#6] : memref<?xindex>
      scf.yield %false : i1
    }
    %16:7 = scf.if %15 -> (memref<?xindex>, memref<?xindex>, memref<?xindex>, memref<?xindex>, memref<?xf32>, !llvm.struct<(array<3 x i64>, array<5 x i64>)>, index) {
      scf.yield %7#0, %7#1, %7#2, %7#3, %7#4, %7#5, %13 : memref<?xindex>, memref<?xindex>, memref<?xindex>, memref<?xindex>, memref<?xf32>, !llvm.struct<(array<3 x i64>, array<5 x i64>)>, index
    } else {
      %19 = arith.addi %12, %c1 : index
      memref.store %19, %7#2[%8] : memref<?xindex>
      %20 = llvm.extractvalue %7#5[1, 3] : !llvm.struct<(array<3 x i64>, array<5 x i64>)> 
      %21 = arith.index_cast %20 : i64 to index
      %dim = memref.dim %7#3, %c0 : memref<?xindex>
      %22 = arith.addi %21, %c1 : index
      %23 = arith.cmpi ugt, %22, %dim : index
      %24 = scf.if %23 -> (memref<?xindex>) {
        %34 = arith.muli %dim, %c2 : index
        %35 = memref.realloc %7#3(%34) : memref<?xindex> to memref<?xindex>
        scf.yield %35 : memref<?xindex>
      } else {
        scf.yield %7#3 : memref<?xindex>
      }
      memref.store %arg7, %24[%21] : memref<?xindex>
      %25 = arith.index_cast %22 : index to i64
      %26 = llvm.insertvalue %25, %7#5[1, 3] : !llvm.struct<(array<3 x i64>, array<5 x i64>)> 
      %27 = llvm.extractvalue %26[1, 4] : !llvm.struct<(array<3 x i64>, array<5 x i64>)> 
      %28 = arith.index_cast %27 : i64 to index
      %dim_0 = memref.dim %7#4, %c0 : memref<?xf32>
      %29 = arith.addi %28, %c32 : index
      %30 = arith.cmpi ugt, %29, %dim_0 : index
      %31 = scf.if %30 -> (memref<?xf32>) {
        %34 = scf.while (%arg10 = %dim_0) : (index) -> index {
          %36 = arith.muli %arg10, %c2 : index
          %37 = arith.cmpi ugt, %29, %36 : index
          scf.condition(%37) %36 : index
        } do {
        ^bb0(%arg10: index):
          scf.yield %arg10 : index
        }
        %35 = memref.realloc %7#4(%34) : memref<?xf32> to memref<?xf32>
        scf.yield %35 : memref<?xf32>
      } else {
        scf.yield %7#4 : memref<?xf32>
      }
      %subview = memref.subview %31[%28] [%c32] [%c1] : memref<?xf32> to memref<?xf32, strided<[?], offset: ?>>
      linalg.fill ins(%cst : f32) outs(%subview : memref<?xf32, strided<[?], offset: ?>>)
      %32 = arith.index_cast %29 : index to i64
      %33 = llvm.insertvalue %32, %26[1, 4] : !llvm.struct<(array<3 x i64>, array<5 x i64>)> 
      scf.yield %7#0, %7#1, %7#2, %24, %31, %33, %12 : memref<?xindex>, memref<?xindex>, memref<?xindex>, memref<?xindex>, memref<?xf32>, !llvm.struct<(array<3 x i64>, array<5 x i64>)>, index
    }
    %17 = arith.muli %16#6, %c32 : index
    %18 = arith.addi %17, %arg8 : index
    memref.store %arg9, %16#4[%18] : memref<?xf32>
    return %16#0, %16#1, %16#2, %16#3, %16#4, %16#5 : memref<?xindex>, memref<?xindex>, memref<?xindex>, memref<?xindex>, memref<?xf32>, !llvm.struct<(array<3 x i64>, array<5 x i64>)>
  }
  func.func private @_sparse_binary_search_1_index(%arg0: index, %arg1: index, %arg2: memref<?xindex>) -> index {
    %c1 = arith.constant 1 : index
    %0:2 = scf.while (%arg3 = %arg0, %arg4 = %arg1) : (index, index) -> (index, index) {
      %1 = arith.cmpi ult, %arg3, %arg4 : index
      scf.condition(%1) %arg3, %arg4 : index, index
    } do {
    ^bb0(%arg3: index, %arg4: index):
      %1 = arith.addi %arg3, %arg4 : index
      %2 = arith.shrui %1, %c1 : index
      %3 = arith.addi %2, %c1 : index
      %4 = memref.load %arg2[%arg1] : memref<?xindex>
      %5 = memref.load %arg2[%2] : memref<?xindex>
      %6 = arith.cmpi ult, %4, %5 : index
      %7 = arith.select %6, %arg3, %3 : index
      %8 = arith.select %6, %2, %arg4 : index
      scf.yield %7, %8 : index, index
    }
    return %0#0 : index
  }
  func.func private @_sparse_sort_stable_1_index(%arg0: index, %arg1: index, %arg2: memref<?xindex>) {
    %c1 = arith.constant 1 : index
    %c0 = arith.constant 0 : index
    %0 = arith.addi %arg0, %c1 : index
    scf.for %arg3 = %0 to %arg1 step %c1 {
      %1 = func.call @_sparse_binary_search_1_index(%arg0, %arg3, %arg2) : (index, index, memref<?xindex>) -> index
      %2 = memref.load %arg2[%arg3] : memref<?xindex>
      %3 = arith.subi %arg3, %1 : index
      scf.for %arg4 = %c0 to %3 step %c1 {
        %4 = arith.subi %arg3, %arg4 : index
        %5 = arith.subi %4, %c1 : index
        %6 = memref.load %arg2[%5] : memref<?xindex>
        memref.store %6, %arg2[%4] : memref<?xindex>
      }
      memref.store %2, %arg2[%1] : memref<?xindex>
    }
    return
  }
  func.func private @_sparse_shift_down_1_index(%arg0: index, %arg1: index, %arg2: memref<?xindex>, %arg3: index) {
    %c2 = arith.constant 2 : index
    %c1 = arith.constant 1 : index
    %0 = arith.cmpi uge, %arg3, %c2 : index
    scf.if %0 {
      %1 = arith.subi %arg1, %arg0 : index
      %2 = arith.subi %arg3, %c2 : index
      %3 = arith.shrui %2, %c1 : index
      %4 = arith.cmpi uge, %3, %1 : index
      scf.if %4 {
        %5 = arith.shli %1, %c1 : index
        %6 = arith.addi %5, %c1 : index
        %7 = arith.addi %6, %arg0 : index
        %8 = arith.addi %6, %c1 : index
        %9 = arith.cmpi ult, %8, %arg3 : index
        %10:2 = scf.if %9 -> (index, index) {
          %12 = arith.addi %8, %arg0 : index
          %13 = memref.load %arg2[%7] : memref<?xindex>
          %14 = memref.load %arg2[%12] : memref<?xindex>
          %15 = arith.cmpi ult, %13, %14 : index
          %16:2 = scf.if %15 -> (index, index) {
            scf.yield %8, %12 : index, index
          } else {
            scf.yield %6, %7 : index, index
          }
          scf.yield %16#0, %16#1 : index, index
        } else {
          scf.yield %6, %7 : index, index
        }
        %11:3 = scf.while (%arg4 = %arg1, %arg5 = %10#0, %arg6 = %10#1) : (index, index, index) -> (index, index, index) {
          %12 = memref.load %arg2[%arg4] : memref<?xindex>
          %13 = memref.load %arg2[%arg6] : memref<?xindex>
          %14 = arith.cmpi ult, %12, %13 : index
          scf.condition(%14) %arg4, %arg5, %arg6 : index, index, index
        } do {
        ^bb0(%arg4: index, %arg5: index, %arg6: index):
          %12 = memref.load %arg2[%arg4] : memref<?xindex>
          %13 = memref.load %arg2[%arg6] : memref<?xindex>
          memref.store %13, %arg2[%arg4] : memref<?xindex>
          memref.store %12, %arg2[%arg6] : memref<?xindex>
          %14 = arith.cmpi uge, %3, %arg5 : index
          %15:2 = scf.if %14 -> (index, index) {
            %16 = arith.shli %arg5, %c1 : index
            %17 = arith.addi %16, %c1 : index
            %18 = arith.addi %17, %arg0 : index
            %19 = arith.addi %17, %c1 : index
            %20 = arith.cmpi ult, %19, %arg3 : index
            %21:2 = scf.if %20 -> (index, index) {
              %22 = arith.addi %19, %arg0 : index
              %23 = memref.load %arg2[%18] : memref<?xindex>
              %24 = memref.load %arg2[%22] : memref<?xindex>
              %25 = arith.cmpi ult, %23, %24 : index
              %26:2 = scf.if %25 -> (index, index) {
                scf.yield %19, %22 : index, index
              } else {
                scf.yield %17, %18 : index, index
              }
              scf.yield %26#0, %26#1 : index, index
            } else {
              scf.yield %17, %18 : index, index
            }
            scf.yield %21#0, %21#1 : index, index
          } else {
            scf.yield %arg5, %arg6 : index, index
          }
          scf.yield %arg6, %15#0, %15#1 : index, index, index
        }
      }
    }
    return
  }
  func.func private @_sparse_heap_sort_1_index(%arg0: index, %arg1: index, %arg2: memref<?xindex>) {
    %c0 = arith.constant 0 : index
    %c1 = arith.constant 1 : index
    %c2 = arith.constant 2 : index
    %0 = arith.subi %arg1, %arg0 : index
    %1 = arith.subi %0, %c2 : index
    %2 = arith.shrui %1, %c1 : index
    %3 = arith.addi %2, %c1 : index
    scf.for %arg3 = %c0 to %3 step %c1 {
      %5 = arith.subi %2, %arg3 : index
      %6 = arith.addi %arg0, %5 : index
      func.call @_sparse_shift_down_1_index(%arg0, %6, %arg2, %0) : (index, index, memref<?xindex>, index) -> ()
    }
    %4 = arith.subi %0, %c1 : index
    scf.for %arg3 = %c0 to %4 step %c1 {
      %5 = arith.subi %0, %arg3 : index
      %6 = arith.addi %arg0, %5 : index
      %7 = arith.subi %6, %c1 : index
      %8 = memref.load %arg2[%arg0] : memref<?xindex>
      %9 = memref.load %arg2[%7] : memref<?xindex>
      memref.store %9, %arg2[%arg0] : memref<?xindex>
      memref.store %8, %arg2[%7] : memref<?xindex>
      %10 = arith.subi %5, %c1 : index
      func.call @_sparse_shift_down_1_index(%arg0, %arg0, %arg2, %10) : (index, index, memref<?xindex>, index) -> ()
    }
    return
  }
  func.func private @_sparse_partition_1_index(%arg0: index, %arg1: index, %arg2: memref<?xindex>) -> index {
    %c1 = arith.constant 1 : index
    %c1000 = arith.constant 1000 : index
    %c-1 = arith.constant -1 : index
    %0 = arith.addi %arg0, %arg1 : index
    %1 = arith.shrui %0, %c1 : index
    %2 = arith.subi %arg1, %c1 : index
    %3 = arith.subi %arg1, %arg0 : index
    %4 = arith.cmpi ult, %3, %c1000 : index
    scf.if %4 {
      %6 = memref.load %arg2[%1] : memref<?xindex>
      %7 = memref.load %arg2[%arg0] : memref<?xindex>
      %8 = arith.cmpi ult, %6, %7 : index
      scf.if %8 {
        %12 = memref.load %arg2[%1] : memref<?xindex>
        %13 = memref.load %arg2[%arg0] : memref<?xindex>
        memref.store %13, %arg2[%1] : memref<?xindex>
        memref.store %12, %arg2[%arg0] : memref<?xindex>
      }
      %9 = memref.load %arg2[%2] : memref<?xindex>
      %10 = memref.load %arg2[%1] : memref<?xindex>
      %11 = arith.cmpi ult, %9, %10 : index
      scf.if %11 {
        %12 = memref.load %arg2[%2] : memref<?xindex>
        %13 = memref.load %arg2[%1] : memref<?xindex>
        memref.store %13, %arg2[%2] : memref<?xindex>
        memref.store %12, %arg2[%1] : memref<?xindex>
        %14 = memref.load %arg2[%1] : memref<?xindex>
        %15 = memref.load %arg2[%arg0] : memref<?xindex>
        %16 = arith.cmpi ult, %14, %15 : index
        scf.if %16 {
          %17 = memref.load %arg2[%1] : memref<?xindex>
          %18 = memref.load %arg2[%arg0] : memref<?xindex>
          memref.store %18, %arg2[%1] : memref<?xindex>
          memref.store %17, %arg2[%arg0] : memref<?xindex>
        }
      }
    } else {
      %6 = arith.addi %arg0, %arg1 : index
      %7 = arith.shrui %6, %c1 : index
      %8 = arith.addi %1, %arg1 : index
      %9 = arith.shrui %8, %c1 : index
      %10 = memref.load %arg2[%7] : memref<?xindex>
      %11 = memref.load %arg2[%arg0] : memref<?xindex>
      %12 = arith.cmpi ult, %10, %11 : index
      scf.if %12 {
        %22 = memref.load %arg2[%7] : memref<?xindex>
        %23 = memref.load %arg2[%arg0] : memref<?xindex>
        memref.store %23, %arg2[%7] : memref<?xindex>
        memref.store %22, %arg2[%arg0] : memref<?xindex>
      }
      %13 = memref.load %arg2[%1] : memref<?xindex>
      %14 = memref.load %arg2[%7] : memref<?xindex>
      %15 = arith.cmpi ult, %13, %14 : index
      scf.if %15 {
        %22 = memref.load %arg2[%1] : memref<?xindex>
        %23 = memref.load %arg2[%7] : memref<?xindex>
        memref.store %23, %arg2[%1] : memref<?xindex>
        memref.store %22, %arg2[%7] : memref<?xindex>
        %24 = memref.load %arg2[%7] : memref<?xindex>
        %25 = memref.load %arg2[%arg0] : memref<?xindex>
        %26 = arith.cmpi ult, %24, %25 : index
        scf.if %26 {
          %27 = memref.load %arg2[%7] : memref<?xindex>
          %28 = memref.load %arg2[%arg0] : memref<?xindex>
          memref.store %28, %arg2[%7] : memref<?xindex>
          memref.store %27, %arg2[%arg0] : memref<?xindex>
        }
      }
      %16 = memref.load %arg2[%9] : memref<?xindex>
      %17 = memref.load %arg2[%1] : memref<?xindex>
      %18 = arith.cmpi ult, %16, %17 : index
      scf.if %18 {
        %22 = memref.load %arg2[%9] : memref<?xindex>
        %23 = memref.load %arg2[%1] : memref<?xindex>
        memref.store %23, %arg2[%9] : memref<?xindex>
        memref.store %22, %arg2[%1] : memref<?xindex>
        %24 = memref.load %arg2[%1] : memref<?xindex>
        %25 = memref.load %arg2[%7] : memref<?xindex>
        %26 = arith.cmpi ult, %24, %25 : index
        scf.if %26 {
          %27 = memref.load %arg2[%1] : memref<?xindex>
          %28 = memref.load %arg2[%7] : memref<?xindex>
          memref.store %28, %arg2[%1] : memref<?xindex>
          memref.store %27, %arg2[%7] : memref<?xindex>
          %29 = memref.load %arg2[%7] : memref<?xindex>
          %30 = memref.load %arg2[%arg0] : memref<?xindex>
          %31 = arith.cmpi ult, %29, %30 : index
          scf.if %31 {
            %32 = memref.load %arg2[%7] : memref<?xindex>
            %33 = memref.load %arg2[%arg0] : memref<?xindex>
            memref.store %33, %arg2[%7] : memref<?xindex>
            memref.store %32, %arg2[%arg0] : memref<?xindex>
          }
        }
      }
      %19 = memref.load %arg2[%2] : memref<?xindex>
      %20 = memref.load %arg2[%9] : memref<?xindex>
      %21 = arith.cmpi ult, %19, %20 : index
      scf.if %21 {
        %22 = memref.load %arg2[%2] : memref<?xindex>
        %23 = memref.load %arg2[%9] : memref<?xindex>
        memref.store %23, %arg2[%2] : memref<?xindex>
        memref.store %22, %arg2[%9] : memref<?xindex>
        %24 = memref.load %arg2[%9] : memref<?xindex>
        %25 = memref.load %arg2[%1] : memref<?xindex>
        %26 = arith.cmpi ult, %24, %25 : index
        scf.if %26 {
          %27 = memref.load %arg2[%9] : memref<?xindex>
          %28 = memref.load %arg2[%1] : memref<?xindex>
          memref.store %28, %arg2[%9] : memref<?xindex>
          memref.store %27, %arg2[%1] : memref<?xindex>
          %29 = memref.load %arg2[%1] : memref<?xindex>
          %30 = memref.load %arg2[%7] : memref<?xindex>
          %31 = arith.cmpi ult, %29, %30 : index
          scf.if %31 {
            %32 = memref.load %arg2[%1] : memref<?xindex>
            %33 = memref.load %arg2[%7] : memref<?xindex>
            memref.store %33, %arg2[%1] : memref<?xindex>
            memref.store %32, %arg2[%7] : memref<?xindex>
            %34 = memref.load %arg2[%7] : memref<?xindex>
            %35 = memref.load %arg2[%arg0] : memref<?xindex>
            %36 = arith.cmpi ult, %34, %35 : index
            scf.if %36 {
              %37 = memref.load %arg2[%7] : memref<?xindex>
              %38 = memref.load %arg2[%arg0] : memref<?xindex>
              memref.store %38, %arg2[%7] : memref<?xindex>
              memref.store %37, %arg2[%arg0] : memref<?xindex>
            }
          }
        }
      }
    }
    %5:3 = scf.while (%arg3 = %arg0, %arg4 = %2, %arg5 = %1) : (index, index, index) -> (index, index, index) {
      %6 = arith.cmpi ult, %arg3, %arg4 : index
      scf.condition(%6) %arg3, %arg4, %arg5 : index, index, index
    } do {
    ^bb0(%arg3: index, %arg4: index, %arg5: index):
      %6 = scf.while (%arg6 = %arg3) : (index) -> index {
        %16 = memref.load %arg2[%arg6] : memref<?xindex>
        %17 = memref.load %arg2[%arg5] : memref<?xindex>
        %18 = arith.cmpi ult, %16, %17 : index
        scf.condition(%18) %arg6 : index
      } do {
      ^bb0(%arg6: index):
        %16 = arith.addi %arg6, %c1 : index
        scf.yield %16 : index
      }
      %7 = memref.load %arg2[%6] : memref<?xindex>
      %8 = memref.load %arg2[%arg5] : memref<?xindex>
      %9 = arith.cmpi eq, %7, %8 : index
      %10 = scf.while (%arg6 = %arg4) : (index) -> index {
        %16 = memref.load %arg2[%arg5] : memref<?xindex>
        %17 = memref.load %arg2[%arg6] : memref<?xindex>
        %18 = arith.cmpi ult, %16, %17 : index
        scf.condition(%18) %arg6 : index
      } do {
      ^bb0(%arg6: index):
        %16 = arith.addi %arg6, %c-1 : index
        scf.yield %16 : index
      }
      %11 = memref.load %arg2[%10] : memref<?xindex>
      %12 = memref.load %arg2[%arg5] : memref<?xindex>
      %13 = arith.cmpi eq, %11, %12 : index
      %14 = arith.cmpi ult, %6, %10 : index
      %15:3 = scf.if %14 -> (index, index, index) {
        %16 = memref.load %arg2[%6] : memref<?xindex>
        %17 = memref.load %arg2[%10] : memref<?xindex>
        memref.store %17, %arg2[%6] : memref<?xindex>
        memref.store %16, %arg2[%10] : memref<?xindex>
        %18 = arith.cmpi eq, %6, %arg5 : index
        %19 = scf.if %18 -> (index) {
          scf.yield %10 : index
        } else {
          %22 = arith.cmpi eq, %10, %arg5 : index
          %23 = scf.if %22 -> (index) {
            scf.yield %6 : index
          } else {
            scf.yield %arg5 : index
          }
          scf.yield %23 : index
        }
        %20 = arith.andi %9, %13 : i1
        %21:2 = scf.if %20 -> (index, index) {
          %22 = arith.addi %6, %c1 : index
          %23 = arith.subi %10, %c1 : index
          scf.yield %22, %23 : index, index
        } else {
          scf.yield %6, %10 : index, index
        }
        scf.yield %21#0, %21#1, %19 : index, index, index
      } else {
        scf.yield %6, %10, %arg5 : index, index, index
      }
      scf.yield %15#0, %15#1, %15#2 : index, index, index
    }
    return %5#2 : index
  }
  func.func private @_sparse_hybrid_qsort_1_index(%arg0: index, %arg1: index, %arg2: memref<?xindex>, %arg3: i64) {
    %c30 = arith.constant 30 : index
    %c1_i64 = arith.constant 1 : i64
    %c0_i64 = arith.constant 0 : i64
    %c1 = arith.constant 1 : index
    %c0 = arith.constant 0 : index
    %0:2 = scf.while (%arg4 = %arg0, %arg5 = %arg1) : (index, index) -> (index, index) {
      %1 = arith.addi %arg4, %c1 : index
      %2 = arith.cmpi ult, %1, %arg5 : index
      scf.condition(%2) %arg4, %arg5 : index, index
    } do {
    ^bb0(%arg4: index, %arg5: index):
      %1 = arith.subi %arg5, %arg4 : index
      %2 = arith.cmpi ule, %1, %c30 : index
      %3:2 = scf.if %2 -> (index, index) {
        func.call @_sparse_sort_stable_1_index(%arg4, %arg5, %arg2) : (index, index, memref<?xindex>) -> ()
        scf.yield %arg4, %arg4 : index, index
      } else {
        %4 = arith.subi %arg3, %c1_i64 : i64
        %5 = arith.cmpi ule, %4, %c0_i64 : i64
        %6:2 = scf.if %5 -> (index, index) {
          func.call @_sparse_heap_sort_1_index(%arg4, %arg5, %arg2) : (index, index, memref<?xindex>) -> ()
          scf.yield %arg4, %arg4 : index, index
        } else {
          %7 = func.call @_sparse_partition_1_index(%arg4, %arg5, %arg2) : (index, index, memref<?xindex>) -> index
          %8 = arith.addi %7, %c1 : index
          %9 = arith.subi %7, %arg4 : index
          %10 = arith.subi %arg5, %7 : index
          %11 = arith.cmpi ule, %9, %10 : index
          %12:2 = scf.if %11 -> (index, index) {
            %13 = arith.cmpi ne, %9, %c0 : index
            scf.if %13 {
              func.call @_sparse_hybrid_qsort_1_index(%arg4, %7, %arg2, %4) : (index, index, memref<?xindex>, i64) -> ()
            }
            scf.yield %8, %arg5 : index, index
          } else {
            %13 = arith.cmpi ne, %10, %c0 : index
            scf.if %13 {
              func.call @_sparse_hybrid_qsort_1_index(%8, %arg5, %arg2, %4) : (index, index, memref<?xindex>, i64) -> ()
            }
            scf.yield %arg4, %7 : index, index
          }
          scf.yield %12#0, %12#1 : index, index
        }
        scf.yield %6#0, %6#1 : index, index
      }
      scf.yield %3#0, %3#1 : index, index
    }
    return
  }
  func.func @MTTKRP.A.0.main(%arg0: memref<?xindex>, %arg1: memref<?xindex>, %arg2: memref<?xindex>, %arg3: memref<?xindex>, %arg4: memref<?xindex>, %arg5: memref<?xindex>, %arg6: memref<?xf32>, %arg7: !llvm.struct<(array<3 x i64>, array<7 x i64>)>, %arg8: memref<?xf32>, %arg9: !llvm.struct<(array<2 x i64>, array<1 x i64>)>, %arg10: memref<?xf32>, %arg11: !llvm.struct<(array<2 x i64>, array<1 x i64>)>) -> (memref<?xf32>, !llvm.struct<(array<2 x i64>, array<1 x i64>)>) attributes {llvm.emit_c_interface} {
    %c1 = arith.constant 1 : index
    %c2 = arith.constant 2 : index
    %c0 = arith.constant 0 : index
    %c64_i64 = arith.constant 64 : i64
    %c4096 = arith.constant 4096 : index
    %c128 = arith.constant 128 : index
    %cst = arith.constant 0.000000e+00 : f32
    %c32 = arith.constant 32 : index
    %false = arith.constant false
    %true = arith.constant true
    %c16 = arith.constant 16 : index
    %alloc = memref.alloc(%c16) : memref<?xindex>
    %alloc_0 = memref.alloc(%c16) : memref<?xindex>
    %alloc_1 = memref.alloc(%c16) : memref<?xindex>
    %alloc_2 = memref.alloc(%c16) : memref<?xindex>
    %alloc_3 = memref.alloc(%c16) : memref<?xf32>
    %0 = llvm.mlir.undef : !llvm.struct<(array<3 x i64>, array<5 x i64>)>
    %c0_i64 = arith.constant 0 : i64
    %1 = llvm.insertvalue %c0_i64, %0[1, 0] : !llvm.struct<(array<3 x i64>, array<5 x i64>)> 
    %2 = llvm.insertvalue %c0_i64, %1[1, 1] : !llvm.struct<(array<3 x i64>, array<5 x i64>)> 
    %3 = llvm.insertvalue %c0_i64, %2[1, 2] : !llvm.struct<(array<3 x i64>, array<5 x i64>)> 
    %4 = llvm.insertvalue %c0_i64, %3[1, 3] : !llvm.struct<(array<3 x i64>, array<5 x i64>)> 
    %5 = llvm.insertvalue %c0_i64, %4[1, 4] : !llvm.struct<(array<3 x i64>, array<5 x i64>)> 
    %6 = arith.index_cast %c128 : index to i64
    %7 = llvm.insertvalue %6, %5[0, 0] : !llvm.struct<(array<3 x i64>, array<5 x i64>)> 
    %8 = llvm.extractvalue %7[1, 0] : !llvm.struct<(array<3 x i64>, array<5 x i64>)> 
    %9 = arith.index_cast %8 : i64 to index
    %10 = arith.addi %9, %c1 : index
    %11 = arith.cmpi ugt, %10, %c16 : index
    %12 = scf.if %11 -> (memref<?xindex>) {
      %53 = memref.realloc %alloc(%c32) : memref<?xindex> to memref<?xindex>
      scf.yield %53 : memref<?xindex>
    } else {
      scf.yield %alloc : memref<?xindex>
    }
    memref.store %c0, %12[%9] : memref<?xindex>
    %13 = arith.index_cast %10 : index to i64
    %14 = llvm.insertvalue %13, %7[1, 0] : !llvm.struct<(array<3 x i64>, array<5 x i64>)> 
    %15 = arith.index_cast %c128 : index to i64
    %16 = llvm.insertvalue %15, %14[0, 1] : !llvm.struct<(array<3 x i64>, array<5 x i64>)> 
    %17 = llvm.extractvalue %16[1, 2] : !llvm.struct<(array<3 x i64>, array<5 x i64>)> 
    %18 = arith.index_cast %17 : i64 to index
    %19 = arith.addi %18, %c1 : index
    %20 = arith.cmpi ugt, %19, %c16 : index
    %21 = scf.if %20 -> (memref<?xindex>) {
      %53 = memref.realloc %alloc_1(%c32) : memref<?xindex> to memref<?xindex>
      scf.yield %53 : memref<?xindex>
    } else {
      scf.yield %alloc_1 : memref<?xindex>
    }
    memref.store %c0, %21[%18] : memref<?xindex>
    %22 = arith.index_cast %19 : index to i64
    %23 = llvm.insertvalue %22, %16[1, 2] : !llvm.struct<(array<3 x i64>, array<5 x i64>)> 
    %24 = arith.index_cast %c32 : index to i64
    %25 = llvm.insertvalue %24, %23[0, 2] : !llvm.struct<(array<3 x i64>, array<5 x i64>)> 
    %dim = memref.dim %12, %c0 : memref<?xindex>
    %26 = arith.addi %10, %c1 : index
    %27 = arith.cmpi ugt, %26, %dim : index
    %28 = scf.if %27 -> (memref<?xindex>) {
      %53 = arith.muli %dim, %c2 : index
      %54 = memref.realloc %12(%53) : memref<?xindex> to memref<?xindex>
      scf.yield %54 : memref<?xindex>
    } else {
      scf.yield %12 : memref<?xindex>
    }
    memref.store %c0, %28[%10] : memref<?xindex>
    %29 = arith.index_cast %26 : index to i64
    %30 = llvm.insertvalue %29, %25[1, 0] : !llvm.struct<(array<3 x i64>, array<5 x i64>)> 
    %alloc_4 = memref.alloc(%c32) : memref<?xf32>
    %alloc_5 = memref.alloc(%c32) : memref<?xi1>
    %alloc_6 = memref.alloc(%c32) : memref<?xindex>
    linalg.fill ins(%cst : f32) outs(%alloc_4 : memref<?xf32>)
    linalg.fill ins(%false : i1) outs(%alloc_5 : memref<?xi1>)
    %31 = memref.load %arg0[%c0] : memref<?xindex>
    %32 = memref.load %arg0[%c1] : memref<?xindex>
    %33:6 = scf.for %arg12 = %31 to %32 step %c1 iter_args(%arg13 = %28, %arg14 = %alloc_0, %arg15 = %21, %arg16 = %alloc_2, %arg17 = %alloc_3, %arg18 = %30) -> (memref<?xindex>, memref<?xindex>, memref<?xindex>, memref<?xindex>, memref<?xf32>, !llvm.struct<(array<3 x i64>, array<5 x i64>)>) {
      %53 = memref.load %arg1[%arg12] : memref<?xindex>
      %54 = memref.load %arg2[%arg12] : memref<?xindex>
      %55 = arith.addi %arg12, %c1 : index
      %56 = memref.load %arg2[%55] : memref<?xindex>
      %57:6 = scf.for %arg19 = %54 to %56 step %c1 iter_args(%arg20 = %arg13, %arg21 = %arg14, %arg22 = %arg15, %arg23 = %arg16, %arg24 = %arg17, %arg25 = %arg18) -> (memref<?xindex>, memref<?xindex>, memref<?xindex>, memref<?xindex>, memref<?xf32>, !llvm.struct<(array<3 x i64>, array<5 x i64>)>) {
        %58 = memref.load %arg3[%arg19] : memref<?xindex>
        %59 = memref.load %arg4[%arg19] : memref<?xindex>
        %60 = arith.addi %arg19, %c1 : index
        %61 = memref.load %arg4[%60] : memref<?xindex>
        %62 = scf.for %arg26 = %59 to %61 step %c1 iter_args(%arg27 = %c0) -> (index) {
          %67 = memref.load %arg5[%arg26] : memref<?xindex>
          %68 = memref.load %arg6[%arg26] : memref<?xf32>
          %69 = scf.for %arg28 = %c0 to %c32 step %c1 iter_args(%arg29 = %arg27) -> (index) {
            %70 = arith.muli %67, %c32 : index
            %71 = arith.addi %70, %arg28 : index
            %72 = memref.load %alloc_4[%arg28] : memref<?xf32>
            %73 = memref.load %arg8[%71] : memref<?xf32>
            %74 = arith.mulf %68, %73 : f32
            %75 = arith.addf %72, %74 : f32
            %76 = memref.load %alloc_5[%arg28] : memref<?xi1>
            %77 = arith.cmpi eq, %76, %false : i1
            %78 = scf.if %77 -> (index) {
              memref.store %true, %alloc_5[%arg28] : memref<?xi1>
              memref.store %arg28, %alloc_6[%arg29] : memref<?xindex>
              %79 = arith.addi %arg29, %c1 : index
              scf.yield %79 : index
            } else {
              scf.yield %arg29 : index
            }
            memref.store %75, %alloc_4[%arg28] : memref<?xf32>
            scf.yield %78 : index
          } {"Emitted from" = "linalg.generic"}
          scf.yield %69 : index
        } {"Emitted from" = "linalg.generic"}
        %63 = arith.index_cast %62 : index to i64
        %64 = math.ctlz %63 : i64
        %65 = arith.subi %c64_i64, %64 : i64
        func.call @_sparse_hybrid_qsort_1_index(%c0, %62, %alloc_6, %65) : (index, index, memref<?xindex>, i64) -> ()
        %66:6 = scf.for %arg26 = %c0 to %62 step %c1 iter_args(%arg27 = %arg20, %arg28 = %arg21, %arg29 = %arg22, %arg30 = %arg23, %arg31 = %arg24, %arg32 = %arg25) -> (memref<?xindex>, memref<?xindex>, memref<?xindex>, memref<?xindex>, memref<?xf32>, !llvm.struct<(array<3 x i64>, array<5 x i64>)>) {
          %67 = memref.load %alloc_6[%arg26] : memref<?xindex>
          %68 = memref.load %alloc_4[%67] : memref<?xf32>
          %69:6 = func.call @_insert_compressed_compressed_dense_128_128_32_f32_0_0(%arg27, %arg28, %arg29, %arg30, %arg31, %arg32, %53, %58, %67, %68) : (memref<?xindex>, memref<?xindex>, memref<?xindex>, memref<?xindex>, memref<?xf32>, !llvm.struct<(array<3 x i64>, array<5 x i64>)>, index, index, index, f32) -> (memref<?xindex>, memref<?xindex>, memref<?xindex>, memref<?xindex>, memref<?xf32>, !llvm.struct<(array<3 x i64>, array<5 x i64>)>)
          memref.store %cst, %alloc_4[%67] : memref<?xf32>
          memref.store %false, %alloc_5[%67] : memref<?xi1>
          scf.yield %69#0, %69#1, %69#2, %69#3, %69#4, %69#5 : memref<?xindex>, memref<?xindex>, memref<?xindex>, memref<?xindex>, memref<?xf32>, !llvm.struct<(array<3 x i64>, array<5 x i64>)>
        }
        scf.yield %66#0, %66#1, %66#2, %66#3, %66#4, %66#5 : memref<?xindex>, memref<?xindex>, memref<?xindex>, memref<?xindex>, memref<?xf32>, !llvm.struct<(array<3 x i64>, array<5 x i64>)>
      } {"Emitted from" = "linalg.generic"}
      scf.yield %57#0, %57#1, %57#2, %57#3, %57#4, %57#5 : memref<?xindex>, memref<?xindex>, memref<?xindex>, memref<?xindex>, memref<?xf32>, !llvm.struct<(array<3 x i64>, array<5 x i64>)>
    } {"Emitted from" = "linalg.generic"}
    memref.dealloc %alloc_4 : memref<?xf32>
    memref.dealloc %alloc_5 : memref<?xi1>
    memref.dealloc %alloc_6 : memref<?xindex>
    %34 = llvm.extractvalue %33#5[1, 2] : !llvm.struct<(array<3 x i64>, array<5 x i64>)> 
    %35 = arith.index_cast %34 : i64 to index
    %36 = memref.load %33#2[%c0] : memref<?xindex>
    %37 = scf.for %arg12 = %c1 to %35 step %c1 iter_args(%arg13 = %36) -> (index) {
      %53 = memref.load %33#2[%arg12] : memref<?xindex>
      %54 = arith.cmpi eq, %53, %c0 : index
      %55 = scf.if %54 -> (index) {
        memref.store %arg13, %33#2[%arg12] : memref<?xindex>
        scf.yield %arg13 : index
      } else {
        scf.yield %53 : index
      }
      scf.yield %55 : index
    }
    %alloc_7 = memref.alloc(%c4096) : memref<?xf32>
    %38 = llvm.mlir.undef : !llvm.struct<(array<2 x i64>, array<1 x i64>)>
    %c0_i64_8 = arith.constant 0 : i64
    %39 = llvm.insertvalue %c0_i64_8, %38[1, 0] : !llvm.struct<(array<2 x i64>, array<1 x i64>)> 
    %40 = arith.index_cast %c128 : index to i64
    %41 = llvm.insertvalue %40, %39[0, 0] : !llvm.struct<(array<2 x i64>, array<1 x i64>)> 
    %42 = arith.index_cast %c32 : index to i64
    %43 = llvm.insertvalue %42, %41[0, 1] : !llvm.struct<(array<2 x i64>, array<1 x i64>)> 
    %44 = llvm.extractvalue %43[1, 0] : !llvm.struct<(array<2 x i64>, array<1 x i64>)> 
    %45 = arith.index_cast %44 : i64 to index
    %46 = arith.addi %45, %c4096 : index
    %47 = arith.cmpi ugt, %46, %c4096 : index
    %48 = scf.if %47 -> (memref<?xf32>) {
      %53 = scf.while (%arg12 = %c4096) : (index) -> index {
        %55 = arith.muli %arg12, %c2 : index
        %56 = arith.cmpi ugt, %46, %55 : index
        scf.condition(%56) %55 : index
      } do {
      ^bb0(%arg12: index):
        scf.yield %arg12 : index
      }
      %54 = memref.realloc %alloc_7(%53) : memref<?xf32> to memref<?xf32>
      scf.yield %54 : memref<?xf32>
    } else {
      scf.yield %alloc_7 : memref<?xf32>
    }
    %subview = memref.subview %48[%45] [%c4096] [%c1] : memref<?xf32> to memref<?xf32, strided<[?], offset: ?>>
    linalg.fill ins(%cst : f32) outs(%subview : memref<?xf32, strided<[?], offset: ?>>)
    %49 = arith.index_cast %46 : index to i64
    %50 = llvm.insertvalue %49, %43[1, 0] : !llvm.struct<(array<2 x i64>, array<1 x i64>)> 
    %51 = memref.load %33#0[%c0] : memref<?xindex>
    %52 = memref.load %33#0[%c1] : memref<?xindex>
    scf.parallel (%arg12) = (%51) to (%52) step (%c1) {
      %53 = memref.load %33#1[%arg12] : memref<?xindex>
      %54 = memref.load %33#2[%arg12] : memref<?xindex>
      %55 = arith.addi %arg12, %c1 : index
      %56 = memref.load %33#2[%55] : memref<?xindex>
      scf.parallel (%arg13) = (%54) to (%56) step (%c1) {
        %57 = memref.load %33#3[%arg13] : memref<?xindex>
        scf.parallel (%arg14) = (%c0) to (%c32) step (%c1) {
          %58 = arith.muli %arg13, %c32 : index
          %59 = arith.addi %58, %arg14 : index
          %60 = arith.muli %57, %c32 : index
          %61 = arith.addi %60, %arg14 : index
          %62 = arith.muli %53, %c32 : index
          %63 = arith.addi %62, %arg14 : index
          %64 = memref.load %48[%63] : memref<?xf32>
          %65 = memref.load %33#4[%59] : memref<?xf32>
          %66 = memref.load %arg10[%61] : memref<?xf32>
          %67 = arith.mulf %65, %66 : f32
          %68 = arith.addf %64, %67 : f32
          memref.store %68, %48[%63] : memref<?xf32>
          scf.yield
        } {"Emitted from" = "linalg.generic"}
        scf.yield
      } {"Emitted from" = "linalg.generic"}
      scf.yield
    } {"Emitted from" = "linalg.generic"}
    return %48, %50 : memref<?xf32>, !llvm.struct<(array<2 x i64>, array<1 x i64>)>
  }
}


// -----// IR Dump After mlir::sparse_tensor::SparsificationAndBufferizationPass () //----- //
module {
  func.func private @_insert_compressed_compressed_dense_128_128_32_f32_0_0(%arg0: memref<?xindex>, %arg1: memref<?xindex>, %arg2: memref<?xindex>, %arg3: memref<?xindex>, %arg4: memref<?xf32>, %arg5: !llvm.struct<(array<3 x i64>, array<5 x i64>)>, %arg6: index, %arg7: index, %arg8: index, %arg9: f32) -> (memref<?xindex>, memref<?xindex>, memref<?xindex>, memref<?xindex>, memref<?xf32>, !llvm.struct<(array<3 x i64>, array<5 x i64>)>) {
    %c1 = arith.constant 1 : index
    %c2 = arith.constant 2 : index
    %cst = arith.constant 0.000000e+00 : f32
    %c32 = arith.constant 32 : index
    %false = arith.constant false
    %c0 = arith.constant 0 : index
    %0 = memref.load %arg0[%c0] : memref<?xindex>
    %1 = memref.load %arg0[%c1] : memref<?xindex>
    %2 = llvm.extractvalue %arg5[1, 1] : !llvm.struct<(array<3 x i64>, array<5 x i64>)> 
    %3 = arith.index_cast %2 : i64 to index
    %4 = arith.subi %1, %c1 : index
    %5 = arith.cmpi ult, %0, %1 : index
    %6 = scf.if %5 -> (i1) {
      %19 = memref.load %arg1[%4] : memref<?xindex>
      %20 = arith.cmpi eq, %19, %arg6 : index
      scf.yield %20 : i1
    } else {
      scf.yield %false : i1
    }
    %7:7 = scf.if %6 -> (memref<?xindex>, memref<?xindex>, memref<?xindex>, memref<?xindex>, memref<?xf32>, !llvm.struct<(array<3 x i64>, array<5 x i64>)>, index) {
      scf.yield %arg0, %arg1, %arg2, %arg3, %arg4, %arg5, %4 : memref<?xindex>, memref<?xindex>, memref<?xindex>, memref<?xindex>, memref<?xf32>, !llvm.struct<(array<3 x i64>, array<5 x i64>)>, index
    } else {
      %19 = arith.addi %3, %c1 : index
      memref.store %19, %arg0[%c1] : memref<?xindex>
      %20 = llvm.extractvalue %arg5[1, 1] : !llvm.struct<(array<3 x i64>, array<5 x i64>)> 
      %21 = arith.index_cast %20 : i64 to index
      %dim = memref.dim %arg1, %c0 : memref<?xindex>
      %22 = arith.addi %21, %c1 : index
      %23 = arith.cmpi ugt, %22, %dim : index
      %24 = scf.if %23 -> (memref<?xindex>) {
        %34 = arith.muli %dim, %c2 : index
        %35 = memref.realloc %arg1(%34) : memref<?xindex> to memref<?xindex>
        scf.yield %35 : memref<?xindex>
      } else {
        scf.yield %arg1 : memref<?xindex>
      }
      memref.store %arg6, %24[%21] : memref<?xindex>
      %25 = arith.index_cast %22 : index to i64
      %26 = llvm.insertvalue %25, %arg5[1, 1] : !llvm.struct<(array<3 x i64>, array<5 x i64>)> 
      %27 = llvm.extractvalue %26[1, 2] : !llvm.struct<(array<3 x i64>, array<5 x i64>)> 
      %28 = arith.index_cast %27 : i64 to index
      %dim_0 = memref.dim %arg2, %c0 : memref<?xindex>
      %29 = arith.addi %28, %c1 : index
      %30 = arith.cmpi ugt, %29, %dim_0 : index
      %31 = scf.if %30 -> (memref<?xindex>) {
        %34 = arith.muli %dim_0, %c2 : index
        %35 = memref.realloc %arg2(%34) : memref<?xindex> to memref<?xindex>
        scf.yield %35 : memref<?xindex>
      } else {
        scf.yield %arg2 : memref<?xindex>
      }
      memref.store %c0, %31[%28] : memref<?xindex>
      %32 = arith.index_cast %29 : index to i64
      %33 = llvm.insertvalue %32, %26[1, 2] : !llvm.struct<(array<3 x i64>, array<5 x i64>)> 
      scf.yield %arg0, %24, %31, %arg3, %arg4, %33, %3 : memref<?xindex>, memref<?xindex>, memref<?xindex>, memref<?xindex>, memref<?xf32>, !llvm.struct<(array<3 x i64>, array<5 x i64>)>, index
    }
    %8 = arith.addi %7#6, %c1 : index
    %9 = memref.load %7#2[%7#6] : memref<?xindex>
    %10 = memref.load %7#2[%8] : memref<?xindex>
    %11 = llvm.extractvalue %7#5[1, 3] : !llvm.struct<(array<3 x i64>, array<5 x i64>)> 
    %12 = arith.index_cast %11 : i64 to index
    %13 = arith.subi %10, %c1 : index
    %14 = arith.cmpi ult, %9, %10 : index
    %15 = scf.if %14 -> (i1) {
      %19 = memref.load %7#3[%13] : memref<?xindex>
      %20 = arith.cmpi eq, %19, %arg7 : index
      scf.yield %20 : i1
    } else {
      memref.store %12, %7#2[%7#6] : memref<?xindex>
      scf.yield %false : i1
    }
    %16:7 = scf.if %15 -> (memref<?xindex>, memref<?xindex>, memref<?xindex>, memref<?xindex>, memref<?xf32>, !llvm.struct<(array<3 x i64>, array<5 x i64>)>, index) {
      scf.yield %7#0, %7#1, %7#2, %7#3, %7#4, %7#5, %13 : memref<?xindex>, memref<?xindex>, memref<?xindex>, memref<?xindex>, memref<?xf32>, !llvm.struct<(array<3 x i64>, array<5 x i64>)>, index
    } else {
      %19 = arith.addi %12, %c1 : index
      memref.store %19, %7#2[%8] : memref<?xindex>
      %20 = llvm.extractvalue %7#5[1, 3] : !llvm.struct<(array<3 x i64>, array<5 x i64>)> 
      %21 = arith.index_cast %20 : i64 to index
      %dim = memref.dim %7#3, %c0 : memref<?xindex>
      %22 = arith.addi %21, %c1 : index
      %23 = arith.cmpi ugt, %22, %dim : index
      %24 = scf.if %23 -> (memref<?xindex>) {
        %34 = arith.muli %dim, %c2 : index
        %35 = memref.realloc %7#3(%34) : memref<?xindex> to memref<?xindex>
        scf.yield %35 : memref<?xindex>
      } else {
        scf.yield %7#3 : memref<?xindex>
      }
      memref.store %arg7, %24[%21] : memref<?xindex>
      %25 = arith.index_cast %22 : index to i64
      %26 = llvm.insertvalue %25, %7#5[1, 3] : !llvm.struct<(array<3 x i64>, array<5 x i64>)> 
      %27 = llvm.extractvalue %26[1, 4] : !llvm.struct<(array<3 x i64>, array<5 x i64>)> 
      %28 = arith.index_cast %27 : i64 to index
      %dim_0 = memref.dim %7#4, %c0 : memref<?xf32>
      %29 = arith.addi %28, %c32 : index
      %30 = arith.cmpi ugt, %29, %dim_0 : index
      %31 = scf.if %30 -> (memref<?xf32>) {
        %34 = scf.while (%arg10 = %dim_0) : (index) -> index {
          %36 = arith.muli %arg10, %c2 : index
          %37 = arith.cmpi ugt, %29, %36 : index
          scf.condition(%37) %36 : index
        } do {
        ^bb0(%arg10: index):
          scf.yield %arg10 : index
        }
        %35 = memref.realloc %7#4(%34) : memref<?xf32> to memref<?xf32>
        scf.yield %35 : memref<?xf32>
      } else {
        scf.yield %7#4 : memref<?xf32>
      }
      %subview = memref.subview %31[%28] [%c32] [%c1] : memref<?xf32> to memref<?xf32, strided<[?], offset: ?>>
      linalg.fill ins(%cst : f32) outs(%subview : memref<?xf32, strided<[?], offset: ?>>)
      %32 = arith.index_cast %29 : index to i64
      %33 = llvm.insertvalue %32, %26[1, 4] : !llvm.struct<(array<3 x i64>, array<5 x i64>)> 
      scf.yield %7#0, %7#1, %7#2, %24, %31, %33, %12 : memref<?xindex>, memref<?xindex>, memref<?xindex>, memref<?xindex>, memref<?xf32>, !llvm.struct<(array<3 x i64>, array<5 x i64>)>, index
    }
    %17 = arith.muli %16#6, %c32 : index
    %18 = arith.addi %17, %arg8 : index
    memref.store %arg9, %16#4[%18] : memref<?xf32>
    return %16#0, %16#1, %16#2, %16#3, %16#4, %16#5 : memref<?xindex>, memref<?xindex>, memref<?xindex>, memref<?xindex>, memref<?xf32>, !llvm.struct<(array<3 x i64>, array<5 x i64>)>
  }
  func.func private @_sparse_binary_search_1_index(%arg0: index, %arg1: index, %arg2: memref<?xindex>) -> index {
    %c1 = arith.constant 1 : index
    %0:2 = scf.while (%arg3 = %arg0, %arg4 = %arg1) : (index, index) -> (index, index) {
      %1 = arith.cmpi ult, %arg3, %arg4 : index
      scf.condition(%1) %arg3, %arg4 : index, index
    } do {
    ^bb0(%arg3: index, %arg4: index):
      %1 = arith.addi %arg3, %arg4 : index
      %2 = arith.shrui %1, %c1 : index
      %3 = arith.addi %2, %c1 : index
      %4 = memref.load %arg2[%arg1] : memref<?xindex>
      %5 = memref.load %arg2[%2] : memref<?xindex>
      %6 = arith.cmpi ult, %4, %5 : index
      %7 = arith.select %6, %arg3, %3 : index
      %8 = arith.select %6, %2, %arg4 : index
      scf.yield %7, %8 : index, index
    }
    return %0#0 : index
  }
  func.func private @_sparse_sort_stable_1_index(%arg0: index, %arg1: index, %arg2: memref<?xindex>) {
    %c1 = arith.constant 1 : index
    %c0 = arith.constant 0 : index
    %0 = arith.addi %arg0, %c1 : index
    scf.for %arg3 = %0 to %arg1 step %c1 {
      %1 = func.call @_sparse_binary_search_1_index(%arg0, %arg3, %arg2) : (index, index, memref<?xindex>) -> index
      %2 = memref.load %arg2[%arg3] : memref<?xindex>
      %3 = arith.subi %arg3, %1 : index
      scf.for %arg4 = %c0 to %3 step %c1 {
        %4 = arith.subi %arg3, %arg4 : index
        %5 = arith.subi %4, %c1 : index
        %6 = memref.load %arg2[%5] : memref<?xindex>
        memref.store %6, %arg2[%4] : memref<?xindex>
      }
      memref.store %2, %arg2[%1] : memref<?xindex>
    }
    return
  }
  func.func private @_sparse_shift_down_1_index(%arg0: index, %arg1: index, %arg2: memref<?xindex>, %arg3: index) {
    %c2 = arith.constant 2 : index
    %c1 = arith.constant 1 : index
    %0 = arith.cmpi uge, %arg3, %c2 : index
    scf.if %0 {
      %1 = arith.subi %arg1, %arg0 : index
      %2 = arith.subi %arg3, %c2 : index
      %3 = arith.shrui %2, %c1 : index
      %4 = arith.cmpi uge, %3, %1 : index
      scf.if %4 {
        %5 = arith.shli %1, %c1 : index
        %6 = arith.addi %5, %c1 : index
        %7 = arith.addi %6, %arg0 : index
        %8 = arith.addi %6, %c1 : index
        %9 = arith.cmpi ult, %8, %arg3 : index
        %10:2 = scf.if %9 -> (index, index) {
          %12 = arith.addi %8, %arg0 : index
          %13 = memref.load %arg2[%7] : memref<?xindex>
          %14 = memref.load %arg2[%12] : memref<?xindex>
          %15 = arith.cmpi ult, %13, %14 : index
          %16:2 = scf.if %15 -> (index, index) {
            scf.yield %8, %12 : index, index
          } else {
            scf.yield %6, %7 : index, index
          }
          scf.yield %16#0, %16#1 : index, index
        } else {
          scf.yield %6, %7 : index, index
        }
        %11:3 = scf.while (%arg4 = %arg1, %arg5 = %10#0, %arg6 = %10#1) : (index, index, index) -> (index, index, index) {
          %12 = memref.load %arg2[%arg4] : memref<?xindex>
          %13 = memref.load %arg2[%arg6] : memref<?xindex>
          %14 = arith.cmpi ult, %12, %13 : index
          scf.condition(%14) %arg4, %arg5, %arg6 : index, index, index
        } do {
        ^bb0(%arg4: index, %arg5: index, %arg6: index):
          %12 = memref.load %arg2[%arg4] : memref<?xindex>
          %13 = memref.load %arg2[%arg6] : memref<?xindex>
          memref.store %13, %arg2[%arg4] : memref<?xindex>
          memref.store %12, %arg2[%arg6] : memref<?xindex>
          %14 = arith.cmpi uge, %3, %arg5 : index
          %15:2 = scf.if %14 -> (index, index) {
            %16 = arith.shli %arg5, %c1 : index
            %17 = arith.addi %16, %c1 : index
            %18 = arith.addi %17, %arg0 : index
            %19 = arith.addi %17, %c1 : index
            %20 = arith.cmpi ult, %19, %arg3 : index
            %21:2 = scf.if %20 -> (index, index) {
              %22 = arith.addi %19, %arg0 : index
              %23 = memref.load %arg2[%18] : memref<?xindex>
              %24 = memref.load %arg2[%22] : memref<?xindex>
              %25 = arith.cmpi ult, %23, %24 : index
              %26:2 = scf.if %25 -> (index, index) {
                scf.yield %19, %22 : index, index
              } else {
                scf.yield %17, %18 : index, index
              }
              scf.yield %26#0, %26#1 : index, index
            } else {
              scf.yield %17, %18 : index, index
            }
            scf.yield %21#0, %21#1 : index, index
          } else {
            scf.yield %arg5, %arg6 : index, index
          }
          scf.yield %arg6, %15#0, %15#1 : index, index, index
        }
      }
    }
    return
  }
  func.func private @_sparse_heap_sort_1_index(%arg0: index, %arg1: index, %arg2: memref<?xindex>) {
    %c0 = arith.constant 0 : index
    %c1 = arith.constant 1 : index
    %c2 = arith.constant 2 : index
    %0 = arith.subi %arg1, %arg0 : index
    %1 = arith.subi %0, %c2 : index
    %2 = arith.shrui %1, %c1 : index
    %3 = arith.addi %2, %c1 : index
    scf.for %arg3 = %c0 to %3 step %c1 {
      %5 = arith.subi %2, %arg3 : index
      %6 = arith.addi %arg0, %5 : index
      func.call @_sparse_shift_down_1_index(%arg0, %6, %arg2, %0) : (index, index, memref<?xindex>, index) -> ()
    }
    %4 = arith.subi %0, %c1 : index
    scf.for %arg3 = %c0 to %4 step %c1 {
      %5 = arith.subi %0, %arg3 : index
      %6 = arith.addi %arg0, %5 : index
      %7 = arith.subi %6, %c1 : index
      %8 = memref.load %arg2[%arg0] : memref<?xindex>
      %9 = memref.load %arg2[%7] : memref<?xindex>
      memref.store %9, %arg2[%arg0] : memref<?xindex>
      memref.store %8, %arg2[%7] : memref<?xindex>
      %10 = arith.subi %5, %c1 : index
      func.call @_sparse_shift_down_1_index(%arg0, %arg0, %arg2, %10) : (index, index, memref<?xindex>, index) -> ()
    }
    return
  }
  func.func private @_sparse_partition_1_index(%arg0: index, %arg1: index, %arg2: memref<?xindex>) -> index {
    %c1 = arith.constant 1 : index
    %c1000 = arith.constant 1000 : index
    %c-1 = arith.constant -1 : index
    %0 = arith.addi %arg0, %arg1 : index
    %1 = arith.shrui %0, %c1 : index
    %2 = arith.subi %arg1, %c1 : index
    %3 = arith.subi %arg1, %arg0 : index
    %4 = arith.cmpi ult, %3, %c1000 : index
    scf.if %4 {
      %6 = memref.load %arg2[%1] : memref<?xindex>
      %7 = memref.load %arg2[%arg0] : memref<?xindex>
      %8 = arith.cmpi ult, %6, %7 : index
      scf.if %8 {
        %12 = memref.load %arg2[%1] : memref<?xindex>
        %13 = memref.load %arg2[%arg0] : memref<?xindex>
        memref.store %13, %arg2[%1] : memref<?xindex>
        memref.store %12, %arg2[%arg0] : memref<?xindex>
      }
      %9 = memref.load %arg2[%2] : memref<?xindex>
      %10 = memref.load %arg2[%1] : memref<?xindex>
      %11 = arith.cmpi ult, %9, %10 : index
      scf.if %11 {
        %12 = memref.load %arg2[%2] : memref<?xindex>
        %13 = memref.load %arg2[%1] : memref<?xindex>
        memref.store %13, %arg2[%2] : memref<?xindex>
        memref.store %12, %arg2[%1] : memref<?xindex>
        %14 = memref.load %arg2[%1] : memref<?xindex>
        %15 = memref.load %arg2[%arg0] : memref<?xindex>
        %16 = arith.cmpi ult, %14, %15 : index
        scf.if %16 {
          %17 = memref.load %arg2[%1] : memref<?xindex>
          %18 = memref.load %arg2[%arg0] : memref<?xindex>
          memref.store %18, %arg2[%1] : memref<?xindex>
          memref.store %17, %arg2[%arg0] : memref<?xindex>
        }
      }
    } else {
      %6 = arith.addi %arg0, %arg1 : index
      %7 = arith.shrui %6, %c1 : index
      %8 = arith.addi %1, %arg1 : index
      %9 = arith.shrui %8, %c1 : index
      %10 = memref.load %arg2[%7] : memref<?xindex>
      %11 = memref.load %arg2[%arg0] : memref<?xindex>
      %12 = arith.cmpi ult, %10, %11 : index
      scf.if %12 {
        %22 = memref.load %arg2[%7] : memref<?xindex>
        %23 = memref.load %arg2[%arg0] : memref<?xindex>
        memref.store %23, %arg2[%7] : memref<?xindex>
        memref.store %22, %arg2[%arg0] : memref<?xindex>
      }
      %13 = memref.load %arg2[%1] : memref<?xindex>
      %14 = memref.load %arg2[%7] : memref<?xindex>
      %15 = arith.cmpi ult, %13, %14 : index
      scf.if %15 {
        %22 = memref.load %arg2[%1] : memref<?xindex>
        %23 = memref.load %arg2[%7] : memref<?xindex>
        memref.store %23, %arg2[%1] : memref<?xindex>
        memref.store %22, %arg2[%7] : memref<?xindex>
        %24 = memref.load %arg2[%7] : memref<?xindex>
        %25 = memref.load %arg2[%arg0] : memref<?xindex>
        %26 = arith.cmpi ult, %24, %25 : index
        scf.if %26 {
          %27 = memref.load %arg2[%7] : memref<?xindex>
          %28 = memref.load %arg2[%arg0] : memref<?xindex>
          memref.store %28, %arg2[%7] : memref<?xindex>
          memref.store %27, %arg2[%arg0] : memref<?xindex>
        }
      }
      %16 = memref.load %arg2[%9] : memref<?xindex>
      %17 = memref.load %arg2[%1] : memref<?xindex>
      %18 = arith.cmpi ult, %16, %17 : index
      scf.if %18 {
        %22 = memref.load %arg2[%9] : memref<?xindex>
        %23 = memref.load %arg2[%1] : memref<?xindex>
        memref.store %23, %arg2[%9] : memref<?xindex>
        memref.store %22, %arg2[%1] : memref<?xindex>
        %24 = memref.load %arg2[%1] : memref<?xindex>
        %25 = memref.load %arg2[%7] : memref<?xindex>
        %26 = arith.cmpi ult, %24, %25 : index
        scf.if %26 {
          %27 = memref.load %arg2[%1] : memref<?xindex>
          %28 = memref.load %arg2[%7] : memref<?xindex>
          memref.store %28, %arg2[%1] : memref<?xindex>
          memref.store %27, %arg2[%7] : memref<?xindex>
          %29 = memref.load %arg2[%7] : memref<?xindex>
          %30 = memref.load %arg2[%arg0] : memref<?xindex>
          %31 = arith.cmpi ult, %29, %30 : index
          scf.if %31 {
            %32 = memref.load %arg2[%7] : memref<?xindex>
            %33 = memref.load %arg2[%arg0] : memref<?xindex>
            memref.store %33, %arg2[%7] : memref<?xindex>
            memref.store %32, %arg2[%arg0] : memref<?xindex>
          }
        }
      }
      %19 = memref.load %arg2[%2] : memref<?xindex>
      %20 = memref.load %arg2[%9] : memref<?xindex>
      %21 = arith.cmpi ult, %19, %20 : index
      scf.if %21 {
        %22 = memref.load %arg2[%2] : memref<?xindex>
        %23 = memref.load %arg2[%9] : memref<?xindex>
        memref.store %23, %arg2[%2] : memref<?xindex>
        memref.store %22, %arg2[%9] : memref<?xindex>
        %24 = memref.load %arg2[%9] : memref<?xindex>
        %25 = memref.load %arg2[%1] : memref<?xindex>
        %26 = arith.cmpi ult, %24, %25 : index
        scf.if %26 {
          %27 = memref.load %arg2[%9] : memref<?xindex>
          %28 = memref.load %arg2[%1] : memref<?xindex>
          memref.store %28, %arg2[%9] : memref<?xindex>
          memref.store %27, %arg2[%1] : memref<?xindex>
          %29 = memref.load %arg2[%1] : memref<?xindex>
          %30 = memref.load %arg2[%7] : memref<?xindex>
          %31 = arith.cmpi ult, %29, %30 : index
          scf.if %31 {
            %32 = memref.load %arg2[%1] : memref<?xindex>
            %33 = memref.load %arg2[%7] : memref<?xindex>
            memref.store %33, %arg2[%1] : memref<?xindex>
            memref.store %32, %arg2[%7] : memref<?xindex>
            %34 = memref.load %arg2[%7] : memref<?xindex>
            %35 = memref.load %arg2[%arg0] : memref<?xindex>
            %36 = arith.cmpi ult, %34, %35 : index
            scf.if %36 {
              %37 = memref.load %arg2[%7] : memref<?xindex>
              %38 = memref.load %arg2[%arg0] : memref<?xindex>
              memref.store %38, %arg2[%7] : memref<?xindex>
              memref.store %37, %arg2[%arg0] : memref<?xindex>
            }
          }
        }
      }
    }
    %5:3 = scf.while (%arg3 = %arg0, %arg4 = %2, %arg5 = %1) : (index, index, index) -> (index, index, index) {
      %6 = arith.cmpi ult, %arg3, %arg4 : index
      scf.condition(%6) %arg3, %arg4, %arg5 : index, index, index
    } do {
    ^bb0(%arg3: index, %arg4: index, %arg5: index):
      %6 = scf.while (%arg6 = %arg3) : (index) -> index {
        %16 = memref.load %arg2[%arg6] : memref<?xindex>
        %17 = memref.load %arg2[%arg5] : memref<?xindex>
        %18 = arith.cmpi ult, %16, %17 : index
        scf.condition(%18) %arg6 : index
      } do {
      ^bb0(%arg6: index):
        %16 = arith.addi %arg6, %c1 : index
        scf.yield %16 : index
      }
      %7 = memref.load %arg2[%6] : memref<?xindex>
      %8 = memref.load %arg2[%arg5] : memref<?xindex>
      %9 = arith.cmpi eq, %7, %8 : index
      %10 = scf.while (%arg6 = %arg4) : (index) -> index {
        %16 = memref.load %arg2[%arg5] : memref<?xindex>
        %17 = memref.load %arg2[%arg6] : memref<?xindex>
        %18 = arith.cmpi ult, %16, %17 : index
        scf.condition(%18) %arg6 : index
      } do {
      ^bb0(%arg6: index):
        %16 = arith.addi %arg6, %c-1 : index
        scf.yield %16 : index
      }
      %11 = memref.load %arg2[%10] : memref<?xindex>
      %12 = memref.load %arg2[%arg5] : memref<?xindex>
      %13 = arith.cmpi eq, %11, %12 : index
      %14 = arith.cmpi ult, %6, %10 : index
      %15:3 = scf.if %14 -> (index, index, index) {
        %16 = memref.load %arg2[%6] : memref<?xindex>
        %17 = memref.load %arg2[%10] : memref<?xindex>
        memref.store %17, %arg2[%6] : memref<?xindex>
        memref.store %16, %arg2[%10] : memref<?xindex>
        %18 = arith.cmpi eq, %6, %arg5 : index
        %19 = scf.if %18 -> (index) {
          scf.yield %10 : index
        } else {
          %22 = arith.cmpi eq, %10, %arg5 : index
          %23 = scf.if %22 -> (index) {
            scf.yield %6 : index
          } else {
            scf.yield %arg5 : index
          }
          scf.yield %23 : index
        }
        %20 = arith.andi %9, %13 : i1
        %21:2 = scf.if %20 -> (index, index) {
          %22 = arith.addi %6, %c1 : index
          %23 = arith.subi %10, %c1 : index
          scf.yield %22, %23 : index, index
        } else {
          scf.yield %6, %10 : index, index
        }
        scf.yield %21#0, %21#1, %19 : index, index, index
      } else {
        scf.yield %6, %10, %arg5 : index, index, index
      }
      scf.yield %15#0, %15#1, %15#2 : index, index, index
    }
    return %5#2 : index
  }
  func.func private @_sparse_hybrid_qsort_1_index(%arg0: index, %arg1: index, %arg2: memref<?xindex>, %arg3: i64) {
    %c30 = arith.constant 30 : index
    %c1_i64 = arith.constant 1 : i64
    %c0_i64 = arith.constant 0 : i64
    %c1 = arith.constant 1 : index
    %c0 = arith.constant 0 : index
    %0:2 = scf.while (%arg4 = %arg0, %arg5 = %arg1) : (index, index) -> (index, index) {
      %1 = arith.addi %arg4, %c1 : index
      %2 = arith.cmpi ult, %1, %arg5 : index
      scf.condition(%2) %arg4, %arg5 : index, index
    } do {
    ^bb0(%arg4: index, %arg5: index):
      %1 = arith.subi %arg5, %arg4 : index
      %2 = arith.cmpi ule, %1, %c30 : index
      %3:2 = scf.if %2 -> (index, index) {
        func.call @_sparse_sort_stable_1_index(%arg4, %arg5, %arg2) : (index, index, memref<?xindex>) -> ()
        scf.yield %arg4, %arg4 : index, index
      } else {
        %4 = arith.subi %arg3, %c1_i64 : i64
        %5 = arith.cmpi ule, %4, %c0_i64 : i64
        %6:2 = scf.if %5 -> (index, index) {
          func.call @_sparse_heap_sort_1_index(%arg4, %arg5, %arg2) : (index, index, memref<?xindex>) -> ()
          scf.yield %arg4, %arg4 : index, index
        } else {
          %7 = func.call @_sparse_partition_1_index(%arg4, %arg5, %arg2) : (index, index, memref<?xindex>) -> index
          %8 = arith.addi %7, %c1 : index
          %9 = arith.subi %7, %arg4 : index
          %10 = arith.subi %arg5, %7 : index
          %11 = arith.cmpi ule, %9, %10 : index
          %12:2 = scf.if %11 -> (index, index) {
            %13 = arith.cmpi ne, %9, %c0 : index
            scf.if %13 {
              func.call @_sparse_hybrid_qsort_1_index(%arg4, %7, %arg2, %4) : (index, index, memref<?xindex>, i64) -> ()
            }
            scf.yield %8, %arg5 : index, index
          } else {
            %13 = arith.cmpi ne, %10, %c0 : index
            scf.if %13 {
              func.call @_sparse_hybrid_qsort_1_index(%8, %arg5, %arg2, %4) : (index, index, memref<?xindex>, i64) -> ()
            }
            scf.yield %arg4, %7 : index, index
          }
          scf.yield %12#0, %12#1 : index, index
        }
        scf.yield %6#0, %6#1 : index, index
      }
      scf.yield %3#0, %3#1 : index, index
    }
    return
  }
  func.func @MTTKRP.A.0.main(%arg0: memref<?xindex>, %arg1: memref<?xindex>, %arg2: memref<?xindex>, %arg3: memref<?xindex>, %arg4: memref<?xindex>, %arg5: memref<?xindex>, %arg6: memref<?xf32>, %arg7: !llvm.struct<(array<3 x i64>, array<7 x i64>)>, %arg8: memref<?xf32>, %arg9: !llvm.struct<(array<2 x i64>, array<1 x i64>)>, %arg10: memref<?xf32>, %arg11: !llvm.struct<(array<2 x i64>, array<1 x i64>)>) -> (memref<?xf32>, !llvm.struct<(array<2 x i64>, array<1 x i64>)>) attributes {llvm.emit_c_interface} {
    %c1 = arith.constant 1 : index
    %c2 = arith.constant 2 : index
    %c0 = arith.constant 0 : index
    %c64_i64 = arith.constant 64 : i64
    %c4096 = arith.constant 4096 : index
    %c128 = arith.constant 128 : index
    %cst = arith.constant 0.000000e+00 : f32
    %c32 = arith.constant 32 : index
    %false = arith.constant false
    %true = arith.constant true
    %c16 = arith.constant 16 : index
    %alloc = memref.alloc(%c16) : memref<?xindex>
    %alloc_0 = memref.alloc(%c16) : memref<?xindex>
    %alloc_1 = memref.alloc(%c16) : memref<?xindex>
    %alloc_2 = memref.alloc(%c16) : memref<?xindex>
    %alloc_3 = memref.alloc(%c16) : memref<?xf32>
    %0 = llvm.mlir.undef : !llvm.struct<(array<3 x i64>, array<5 x i64>)>
    %c0_i64 = arith.constant 0 : i64
    %1 = llvm.insertvalue %c0_i64, %0[1, 0] : !llvm.struct<(array<3 x i64>, array<5 x i64>)> 
    %2 = llvm.insertvalue %c0_i64, %1[1, 1] : !llvm.struct<(array<3 x i64>, array<5 x i64>)> 
    %3 = llvm.insertvalue %c0_i64, %2[1, 2] : !llvm.struct<(array<3 x i64>, array<5 x i64>)> 
    %4 = llvm.insertvalue %c0_i64, %3[1, 3] : !llvm.struct<(array<3 x i64>, array<5 x i64>)> 
    %5 = llvm.insertvalue %c0_i64, %4[1, 4] : !llvm.struct<(array<3 x i64>, array<5 x i64>)> 
    %6 = arith.index_cast %c128 : index to i64
    %7 = llvm.insertvalue %6, %5[0, 0] : !llvm.struct<(array<3 x i64>, array<5 x i64>)> 
    %8 = llvm.extractvalue %7[1, 0] : !llvm.struct<(array<3 x i64>, array<5 x i64>)> 
    %9 = arith.index_cast %8 : i64 to index
    %10 = arith.addi %9, %c1 : index
    %11 = arith.cmpi ugt, %10, %c16 : index
    %12 = scf.if %11 -> (memref<?xindex>) {
      %53 = memref.realloc %alloc(%c32) : memref<?xindex> to memref<?xindex>
      scf.yield %53 : memref<?xindex>
    } else {
      scf.yield %alloc : memref<?xindex>
    }
    memref.store %c0, %12[%9] : memref<?xindex>
    %13 = arith.index_cast %10 : index to i64
    %14 = llvm.insertvalue %13, %7[1, 0] : !llvm.struct<(array<3 x i64>, array<5 x i64>)> 
    %15 = arith.index_cast %c128 : index to i64
    %16 = llvm.insertvalue %15, %14[0, 1] : !llvm.struct<(array<3 x i64>, array<5 x i64>)> 
    %17 = llvm.extractvalue %16[1, 2] : !llvm.struct<(array<3 x i64>, array<5 x i64>)> 
    %18 = arith.index_cast %17 : i64 to index
    %19 = arith.addi %18, %c1 : index
    %20 = arith.cmpi ugt, %19, %c16 : index
    %21 = scf.if %20 -> (memref<?xindex>) {
      %53 = memref.realloc %alloc_1(%c32) : memref<?xindex> to memref<?xindex>
      scf.yield %53 : memref<?xindex>
    } else {
      scf.yield %alloc_1 : memref<?xindex>
    }
    memref.store %c0, %21[%18] : memref<?xindex>
    %22 = arith.index_cast %19 : index to i64
    %23 = llvm.insertvalue %22, %16[1, 2] : !llvm.struct<(array<3 x i64>, array<5 x i64>)> 
    %24 = arith.index_cast %c32 : index to i64
    %25 = llvm.insertvalue %24, %23[0, 2] : !llvm.struct<(array<3 x i64>, array<5 x i64>)> 
    %dim = memref.dim %12, %c0 : memref<?xindex>
    %26 = arith.addi %10, %c1 : index
    %27 = arith.cmpi ugt, %26, %dim : index
    %28 = scf.if %27 -> (memref<?xindex>) {
      %53 = arith.muli %dim, %c2 : index
      %54 = memref.realloc %12(%53) : memref<?xindex> to memref<?xindex>
      scf.yield %54 : memref<?xindex>
    } else {
      scf.yield %12 : memref<?xindex>
    }
    memref.store %c0, %28[%10] : memref<?xindex>
    %29 = arith.index_cast %26 : index to i64
    %30 = llvm.insertvalue %29, %25[1, 0] : !llvm.struct<(array<3 x i64>, array<5 x i64>)> 
    %alloc_4 = memref.alloc(%c32) : memref<?xf32>
    %alloc_5 = memref.alloc(%c32) : memref<?xi1>
    %alloc_6 = memref.alloc(%c32) : memref<?xindex>
    linalg.fill ins(%cst : f32) outs(%alloc_4 : memref<?xf32>)
    linalg.fill ins(%false : i1) outs(%alloc_5 : memref<?xi1>)
    %31 = memref.load %arg0[%c0] : memref<?xindex>
    %32 = memref.load %arg0[%c1] : memref<?xindex>
    %33:6 = scf.for %arg12 = %31 to %32 step %c1 iter_args(%arg13 = %28, %arg14 = %alloc_0, %arg15 = %21, %arg16 = %alloc_2, %arg17 = %alloc_3, %arg18 = %30) -> (memref<?xindex>, memref<?xindex>, memref<?xindex>, memref<?xindex>, memref<?xf32>, !llvm.struct<(array<3 x i64>, array<5 x i64>)>) {
      %53 = memref.load %arg1[%arg12] : memref<?xindex>
      %54 = memref.load %arg2[%arg12] : memref<?xindex>
      %55 = arith.addi %arg12, %c1 : index
      %56 = memref.load %arg2[%55] : memref<?xindex>
      %57:6 = scf.for %arg19 = %54 to %56 step %c1 iter_args(%arg20 = %arg13, %arg21 = %arg14, %arg22 = %arg15, %arg23 = %arg16, %arg24 = %arg17, %arg25 = %arg18) -> (memref<?xindex>, memref<?xindex>, memref<?xindex>, memref<?xindex>, memref<?xf32>, !llvm.struct<(array<3 x i64>, array<5 x i64>)>) {
        %58 = memref.load %arg3[%arg19] : memref<?xindex>
        %59 = memref.load %arg4[%arg19] : memref<?xindex>
        %60 = arith.addi %arg19, %c1 : index
        %61 = memref.load %arg4[%60] : memref<?xindex>
        %62 = scf.for %arg26 = %59 to %61 step %c1 iter_args(%arg27 = %c0) -> (index) {
          %67 = memref.load %arg5[%arg26] : memref<?xindex>
          %68 = memref.load %arg6[%arg26] : memref<?xf32>
          %69 = scf.for %arg28 = %c0 to %c32 step %c1 iter_args(%arg29 = %arg27) -> (index) {
            %70 = arith.muli %67, %c32 : index
            %71 = arith.addi %70, %arg28 : index
            %72 = memref.load %alloc_4[%arg28] : memref<?xf32>
            %73 = memref.load %arg8[%71] : memref<?xf32>
            %74 = arith.mulf %68, %73 : f32
            %75 = arith.addf %72, %74 : f32
            %76 = memref.load %alloc_5[%arg28] : memref<?xi1>
            %77 = arith.cmpi eq, %76, %false : i1
            %78 = scf.if %77 -> (index) {
              memref.store %true, %alloc_5[%arg28] : memref<?xi1>
              memref.store %arg28, %alloc_6[%arg29] : memref<?xindex>
              %79 = arith.addi %arg29, %c1 : index
              scf.yield %79 : index
            } else {
              scf.yield %arg29 : index
            }
            memref.store %75, %alloc_4[%arg28] : memref<?xf32>
            scf.yield %78 : index
          } {"Emitted from" = "linalg.generic"}
          scf.yield %69 : index
        } {"Emitted from" = "linalg.generic"}
        %63 = arith.index_cast %62 : index to i64
        %64 = math.ctlz %63 : i64
        %65 = arith.subi %c64_i64, %64 : i64
        func.call @_sparse_hybrid_qsort_1_index(%c0, %62, %alloc_6, %65) : (index, index, memref<?xindex>, i64) -> ()
        %66:6 = scf.for %arg26 = %c0 to %62 step %c1 iter_args(%arg27 = %arg20, %arg28 = %arg21, %arg29 = %arg22, %arg30 = %arg23, %arg31 = %arg24, %arg32 = %arg25) -> (memref<?xindex>, memref<?xindex>, memref<?xindex>, memref<?xindex>, memref<?xf32>, !llvm.struct<(array<3 x i64>, array<5 x i64>)>) {
          %67 = memref.load %alloc_6[%arg26] : memref<?xindex>
          %68 = memref.load %alloc_4[%67] : memref<?xf32>
…
    %275 = llvm.add %274, %6  : i64
    llvm.br ^bb33(%275 : i64)
  ^bb35:  // pred: ^bb33
    %276 = llvm.extractvalue %5[1] : !llvm.struct<(ptr, ptr, i64, array<1 x i64>, array<1 x i64>)> 
    %277 = llvm.getelementptr %276[%266] : (!llvm.ptr, i64) -> !llvm.ptr, i64
    %278 = llvm.load %277 : !llvm.ptr -> i64
    %279 = llvm.extractvalue %5[1] : !llvm.struct<(ptr, ptr, i64, array<1 x i64>, array<1 x i64>)> 
    %280 = llvm.getelementptr %279[%248] : (!llvm.ptr, i64) -> !llvm.ptr, i64
    %281 = llvm.load %280 : !llvm.ptr -> i64
    %282 = llvm.icmp "eq" %278, %281 : i64
    %283 = llvm.icmp "ult" %249, %266 : i64
    llvm.cond_br %283, ^bb36, ^bb44(%249, %266, %248 : i64, i64, i64)
  ^bb36:  // pred: ^bb35
    %284 = llvm.extractvalue %5[1] : !llvm.struct<(ptr, ptr, i64, array<1 x i64>, array<1 x i64>)> 
    %285 = llvm.getelementptr %284[%249] : (!llvm.ptr, i64) -> !llvm.ptr, i64
    %286 = llvm.load %285 : !llvm.ptr -> i64
    %287 = llvm.extractvalue %5[1] : !llvm.struct<(ptr, ptr, i64, array<1 x i64>, array<1 x i64>)> 
    %288 = llvm.getelementptr %287[%266] : (!llvm.ptr, i64) -> !llvm.ptr, i64
    %289 = llvm.load %288 : !llvm.ptr -> i64
    %290 = llvm.extractvalue %5[1] : !llvm.struct<(ptr, ptr, i64, array<1 x i64>, array<1 x i64>)> 
    %291 = llvm.getelementptr %290[%249] : (!llvm.ptr, i64) -> !llvm.ptr, i64
    llvm.store %289, %291 : i64, !llvm.ptr
    %292 = llvm.extractvalue %5[1] : !llvm.struct<(ptr, ptr, i64, array<1 x i64>, array<1 x i64>)> 
    %293 = llvm.getelementptr %292[%266] : (!llvm.ptr, i64) -> !llvm.ptr, i64
    llvm.store %286, %293 : i64, !llvm.ptr
    %294 = llvm.icmp "eq" %249, %248 : i64
    llvm.cond_br %294, ^bb37, ^bb38
  ^bb37:  // pred: ^bb36
    llvm.br ^bb39(%266 : i64)
  ^bb38:  // pred: ^bb36
    %295 = llvm.icmp "eq" %266, %248 : i64
    %296 = llvm.select %295, %249, %248 : i1, i64
    llvm.br ^bb39(%296 : i64)
  ^bb39(%297: i64):  // 2 preds: ^bb37, ^bb38
    llvm.br ^bb40
  ^bb40:  // pred: ^bb39
    %298 = llvm.and %265, %282  : i1
    llvm.cond_br %298, ^bb41, ^bb42
  ^bb41:  // pred: ^bb40
    %299 = llvm.add %249, %8  : i64
    %300 = llvm.sub %266, %8  : i64
    llvm.br ^bb43(%299, %300 : i64, i64)
  ^bb42:  // pred: ^bb40
    llvm.br ^bb43(%249, %266 : i64, i64)
  ^bb43(%301: i64, %302: i64):  // 2 preds: ^bb41, ^bb42
    llvm.br ^bb44(%301, %302, %297 : i64, i64, i64)
  ^bb44(%303: i64, %304: i64, %305: i64):  // 2 preds: ^bb35, ^bb43
    llvm.br ^bb45(%303, %304, %305 : i64, i64, i64)
  ^bb45(%306: i64, %307: i64, %308: i64):  // pred: ^bb44
    llvm.br ^bb27(%306, %307, %308 : i64, i64, i64)
  ^bb46:  // pred: ^bb28
    llvm.return %244 : i64
  }
  llvm.func @_sparse_hybrid_qsort_1_index(%arg0: i64, %arg1: i64, %arg2: !llvm.ptr, %arg3: !llvm.ptr, %arg4: i64, %arg5: i64, %arg6: i64, %arg7: i64) attributes {sym_visibility = "private"} {
    %0 = llvm.mlir.undef : !llvm.struct<(ptr, ptr, i64, array<1 x i64>, array<1 x i64>)>
    %1 = llvm.insertvalue %arg2, %0[0] : !llvm.struct<(ptr, ptr, i64, array<1 x i64>, array<1 x i64>)> 
    %2 = llvm.insertvalue %arg3, %1[1] : !llvm.struct<(ptr, ptr, i64, array<1 x i64>, array<1 x i64>)> 
    %3 = llvm.insertvalue %arg4, %2[2] : !llvm.struct<(ptr, ptr, i64, array<1 x i64>, array<1 x i64>)> 
    %4 = llvm.insertvalue %arg5, %3[3, 0] : !llvm.struct<(ptr, ptr, i64, array<1 x i64>, array<1 x i64>)> 
    %5 = llvm.insertvalue %arg6, %4[4, 0] : !llvm.struct<(ptr, ptr, i64, array<1 x i64>, array<1 x i64>)> 
    %6 = llvm.mlir.constant(30 : index) : i64
    %7 = llvm.mlir.constant(1 : i64) : i64
    %8 = llvm.mlir.constant(0 : i64) : i64
    %9 = llvm.mlir.constant(1 : index) : i64
    %10 = llvm.mlir.constant(0 : index) : i64
    llvm.br ^bb1(%arg0, %arg1 : i64, i64)
  ^bb1(%11: i64, %12: i64):  // 2 preds: ^bb0, ^bb14
    %13 = llvm.add %11, %9  : i64
    %14 = llvm.icmp "ult" %13, %12 : i64
    llvm.cond_br %14, ^bb2(%11, %12 : i64, i64), ^bb15
  ^bb2(%15: i64, %16: i64):  // pred: ^bb1
    %17 = llvm.sub %16, %15  : i64
    %18 = llvm.icmp "ule" %17, %6 : i64
    llvm.cond_br %18, ^bb3, ^bb4
  ^bb3:  // pred: ^bb2
    llvm.call @_sparse_sort_stable_1_index(%15, %16, %arg2, %arg3, %arg4, %arg5, %arg6) : (i64, i64, !llvm.ptr, !llvm.ptr, i64, i64, i64) -> ()
    llvm.br ^bb13(%15, %15 : i64, i64)
  ^bb4:  // pred: ^bb2
    %19 = llvm.sub %arg7, %7  : i64
    %20 = llvm.icmp "ule" %19, %8 : i64
    llvm.cond_br %20, ^bb5, ^bb6
  ^bb5:  // pred: ^bb4
    llvm.call @_sparse_heap_sort_1_index(%15, %16, %arg2, %arg3, %arg4, %arg5, %arg6) : (i64, i64, !llvm.ptr, !llvm.ptr, i64, i64, i64) -> ()
    llvm.br ^bb11(%15, %15 : i64, i64)
  ^bb6:  // pred: ^bb4
    %21 = llvm.call @_sparse_partition_1_index(%15, %16, %arg2, %arg3, %arg4, %arg5, %arg6) : (i64, i64, !llvm.ptr, !llvm.ptr, i64, i64, i64) -> i64
    %22 = llvm.add %21, %9  : i64
    %23 = llvm.sub %21, %15  : i64
    %24 = llvm.sub %16, %21  : i64
    %25 = llvm.icmp "ule" %23, %24 : i64
    %26 = llvm.select %25, %22, %15 : i1, i64
    %27 = llvm.select %25, %16, %21 : i1, i64
    llvm.cond_br %25, ^bb7(%23, %15, %21 : i64, i64, i64), ^bb7(%24, %22, %16 : i64, i64, i64)
  ^bb7(%28: i64, %29: i64, %30: i64):  // 2 preds: ^bb6, ^bb6
    %31 = llvm.icmp "ne" %28, %10 : i64
    llvm.cond_br %31, ^bb8(%29, %30 : i64, i64), ^bb9
  ^bb8(%32: i64, %33: i64):  // pred: ^bb7
    llvm.call @_sparse_hybrid_qsort_1_index(%32, %33, %arg2, %arg3, %arg4, %arg5, %arg6, %19) : (i64, i64, !llvm.ptr, !llvm.ptr, i64, i64, i64, i64) -> ()
    llvm.br ^bb9
  ^bb9:  // 2 preds: ^bb7, ^bb8
    llvm.br ^bb10
  ^bb10:  // pred: ^bb9
    llvm.br ^bb11(%26, %27 : i64, i64)
  ^bb11(%34: i64, %35: i64):  // 2 preds: ^bb5, ^bb10
    llvm.br ^bb12
  ^bb12:  // pred: ^bb11
    llvm.br ^bb13(%34, %35 : i64, i64)
  ^bb13(%36: i64, %37: i64):  // 2 preds: ^bb3, ^bb12
    llvm.br ^bb14
  ^bb14:  // pred: ^bb13
    llvm.br ^bb1(%36, %37 : i64, i64)
  ^bb15:  // pred: ^bb1
    llvm.return
  }
  llvm.func @MTTKRP.A.0.main(%arg0: !llvm.ptr, %arg1: !llvm.ptr, %arg2: i64, %arg3: i64, %arg4: i64, %arg5: !llvm.ptr, %arg6: !llvm.ptr, %arg7: i64, %arg8: i64, %arg9: i64, %arg10: !llvm.ptr, %arg11: !llvm.ptr, %arg12: i64, %arg13: i64, %arg14: i64, %arg15: !llvm.ptr, %arg16: !llvm.ptr, %arg17: i64, %arg18: i64, %arg19: i64, %arg20: !llvm.ptr, %arg21: !llvm.ptr, %arg22: i64, %arg23: i64, %arg24: i64, %arg25: !llvm.ptr, %arg26: !llvm.ptr, %arg27: i64, %arg28: i64, %arg29: i64, %arg30: !llvm.ptr, %arg31: !llvm.ptr, %arg32: i64, %arg33: i64, %arg34: i64, %arg35: !llvm.struct<(array<3 x i64>, array<7 x i64>)>, %arg36: !llvm.ptr, %arg37: !llvm.ptr, %arg38: i64, %arg39: i64, %arg40: i64, %arg41: !llvm.struct<(array<2 x i64>, array<1 x i64>)>, %arg42: !llvm.ptr, %arg43: !llvm.ptr, %arg44: i64, %arg45: i64, %arg46: i64, %arg47: !llvm.struct<(array<2 x i64>, array<1 x i64>)>) -> !llvm.struct<(struct<(ptr, ptr, i64, array<1 x i64>, array<1 x i64>)>, struct<(array<2 x i64>, array<1 x i64>)>)> attributes {llvm.emit_c_interface} {
    %0 = llvm.mlir.undef : !llvm.struct<(ptr, ptr, i64, array<1 x i64>, array<1 x i64>)>
    %1 = llvm.insertvalue %arg0, %0[0] : !llvm.struct<(ptr, ptr, i64, array<1 x i64>, array<1 x i64>)> 
    %2 = llvm.insertvalue %arg1, %1[1] : !llvm.struct<(ptr, ptr, i64, array<1 x i64>, array<1 x i64>)> 
    %3 = llvm.insertvalue %arg2, %2[2] : !llvm.struct<(ptr, ptr, i64, array<1 x i64>, array<1 x i64>)> 
    %4 = llvm.insertvalue %arg3, %3[3, 0] : !llvm.struct<(ptr, ptr, i64, array<1 x i64>, array<1 x i64>)> 
    %5 = llvm.insertvalue %arg4, %4[4, 0] : !llvm.struct<(ptr, ptr, i64, array<1 x i64>, array<1 x i64>)> 
    %6 = llvm.mlir.undef : !llvm.struct<(ptr, ptr, i64, array<1 x i64>, array<1 x i64>)>
    %7 = llvm.insertvalue %arg5, %6[0] : !llvm.struct<(ptr, ptr, i64, array<1 x i64>, array<1 x i64>)> 
    %8 = llvm.insertvalue %arg6, %7[1] : !llvm.struct<(ptr, ptr, i64, array<1 x i64>, array<1 x i64>)> 
    %9 = llvm.insertvalue %arg7, %8[2] : !llvm.struct<(ptr, ptr, i64, array<1 x i64>, array<1 x i64>)> 
    %10 = llvm.insertvalue %arg8, %9[3, 0] : !llvm.struct<(ptr, ptr, i64, array<1 x i64>, array<1 x i64>)> 
    %11 = llvm.insertvalue %arg9, %10[4, 0] : !llvm.struct<(ptr, ptr, i64, array<1 x i64>, array<1 x i64>)> 
    %12 = llvm.mlir.undef : !llvm.struct<(ptr, ptr, i64, array<1 x i64>, array<1 x i64>)>
    %13 = llvm.insertvalue %arg10, %12[0] : !llvm.struct<(ptr, ptr, i64, array<1 x i64>, array<1 x i64>)> 
    %14 = llvm.insertvalue %arg11, %13[1] : !llvm.struct<(ptr, ptr, i64, array<1 x i64>, array<1 x i64>)> 
    %15 = llvm.insertvalue %arg12, %14[2] : !llvm.struct<(ptr, ptr, i64, array<1 x i64>, array<1 x i64>)> 
    %16 = llvm.insertvalue %arg13, %15[3, 0] : !llvm.struct<(ptr, ptr, i64, array<1 x i64>, array<1 x i64>)> 
    %17 = llvm.insertvalue %arg14, %16[4, 0] : !llvm.struct<(ptr, ptr, i64, array<1 x i64>, array<1 x i64>)> 
    %18 = llvm.mlir.undef : !llvm.struct<(ptr, ptr, i64, array<1 x i64>, array<1 x i64>)>
    %19 = llvm.insertvalue %arg15, %18[0] : !llvm.struct<(ptr, ptr, i64, array<1 x i64>, array<1 x i64>)> 
    %20 = llvm.insertvalue %arg16, %19[1] : !llvm.struct<(ptr, ptr, i64, array<1 x i64>, array<1 x i64>)> 
    %21 = llvm.insertvalue %arg17, %20[2] : !llvm.struct<(ptr, ptr, i64, array<1 x i64>, array<1 x i64>)> 
    %22 = llvm.insertvalue %arg18, %21[3, 0] : !llvm.struct<(ptr, ptr, i64, array<1 x i64>, array<1 x i64>)> 
    %23 = llvm.insertvalue %arg19, %22[4, 0] : !llvm.struct<(ptr, ptr, i64, array<1 x i64>, array<1 x i64>)> 
    %24 = llvm.mlir.undef : !llvm.struct<(ptr, ptr, i64, array<1 x i64>, array<1 x i64>)>
    %25 = llvm.insertvalue %arg20, %24[0] : !llvm.struct<(ptr, ptr, i64, array<1 x i64>, array<1 x i64>)> 
    %26 = llvm.insertvalue %arg21, %25[1] : !llvm.struct<(ptr, ptr, i64, array<1 x i64>, array<1 x i64>)> 
    %27 = llvm.insertvalue %arg22, %26[2] : !llvm.struct<(ptr, ptr, i64, array<1 x i64>, array<1 x i64>)> 
    %28 = llvm.insertvalue %arg23, %27[3, 0] : !llvm.struct<(ptr, ptr, i64, array<1 x i64>, array<1 x i64>)> 
    %29 = llvm.insertvalue %arg24, %28[4, 0] : !llvm.struct<(ptr, ptr, i64, array<1 x i64>, array<1 x i64>)> 
    %30 = llvm.mlir.undef : !llvm.struct<(ptr, ptr, i64, array<1 x i64>, array<1 x i64>)>
    %31 = llvm.insertvalue %arg25, %30[0] : !llvm.struct<(ptr, ptr, i64, array<1 x i64>, array<1 x i64>)> 
    %32 = llvm.insertvalue %arg26, %31[1] : !llvm.struct<(ptr, ptr, i64, array<1 x i64>, array<1 x i64>)> 
    %33 = llvm.insertvalue %arg27, %32[2] : !llvm.struct<(ptr, ptr, i64, array<1 x i64>, array<1 x i64>)> 
    %34 = llvm.insertvalue %arg28, %33[3, 0] : !llvm.struct<(ptr, ptr, i64, array<1 x i64>, array<1 x i64>)> 
    %35 = llvm.insertvalue %arg29, %34[4, 0] : !llvm.struct<(ptr, ptr, i64, array<1 x i64>, array<1 x i64>)> 
    %36 = llvm.mlir.undef : !llvm.struct<(ptr, ptr, i64, array<1 x i64>, array<1 x i64>)>
    %37 = llvm.insertvalue %arg30, %36[0] : !llvm.struct<(ptr, ptr, i64, array<1 x i64>, array<1 x i64>)> 
    %38 = llvm.insertvalue %arg31, %37[1] : !llvm.struct<(ptr, ptr, i64, array<1 x i64>, array<1 x i64>)> 
    %39 = llvm.insertvalue %arg32, %38[2] : !llvm.struct<(ptr, ptr, i64, array<1 x i64>, array<1 x i64>)> 
    %40 = llvm.insertvalue %arg33, %39[3, 0] : !llvm.struct<(ptr, ptr, i64, array<1 x i64>, array<1 x i64>)> 
    %41 = llvm.insertvalue %arg34, %40[4, 0] : !llvm.struct<(ptr, ptr, i64, array<1 x i64>, array<1 x i64>)> 
    %42 = llvm.mlir.undef : !llvm.struct<(ptr, ptr, i64, array<1 x i64>, array<1 x i64>)>
    %43 = llvm.insertvalue %arg36, %42[0] : !llvm.struct<(ptr, ptr, i64, array<1 x i64>, array<1 x i64>)> 
    %44 = llvm.insertvalue %arg37, %43[1] : !llvm.struct<(ptr, ptr, i64, array<1 x i64>, array<1 x i64>)> 
    %45 = llvm.insertvalue %arg38, %44[2] : !llvm.struct<(ptr, ptr, i64, array<1 x i64>, array<1 x i64>)> 
    %46 = llvm.insertvalue %arg39, %45[3, 0] : !llvm.struct<(ptr, ptr, i64, array<1 x i64>, array<1 x i64>)> 
    %47 = llvm.insertvalue %arg40, %46[4, 0] : !llvm.struct<(ptr, ptr, i64, array<1 x i64>, array<1 x i64>)> 
    %48 = llvm.mlir.undef : !llvm.struct<(ptr, ptr, i64, array<1 x i64>, array<1 x i64>)>
    %49 = llvm.insertvalue %arg42, %48[0] : !llvm.struct<(ptr, ptr, i64, array<1 x i64>, array<1 x i64>)> 
    %50 = llvm.insertvalue %arg43, %49[1] : !llvm.struct<(ptr, ptr, i64, array<1 x i64>, array<1 x i64>)> 
    %51 = llvm.insertvalue %arg44, %50[2] : !llvm.struct<(ptr, ptr, i64, array<1 x i64>, array<1 x i64>)> 
    %52 = llvm.insertvalue %arg45, %51[3, 0] : !llvm.struct<(ptr, ptr, i64, array<1 x i64>, array<1 x i64>)> 
    %53 = llvm.insertvalue %arg46, %52[4, 0] : !llvm.struct<(ptr, ptr, i64, array<1 x i64>, array<1 x i64>)> 
    %54 = llvm.mlir.constant(4096 : index) : i64
    %55 = llvm.mlir.constant(32 : index) : i64
    %56 = llvm.mlir.constant(0 : index) : i64
    %57 = llvm.mlir.constant(1 : index) : i64
    %58 = llvm.mlir.constant(16 : index) : i64
    %59 = llvm.mlir.constant(true) : i1
    %60 = llvm.mlir.constant(0.000000e+00 : f32) : f32
    %61 = llvm.mlir.constant(64 : i64) : i64
    %62 = llvm.mlir.constant(0 : i64) : i64
    %63 = llvm.mlir.constant(1 : i64) : i64
    %64 = llvm.mlir.constant(2 : i64) : i64
    %65 = llvm.mlir.constant(128 : i64) : i64
    %66 = llvm.mlir.constant(32 : i64) : i64
    %67 = llvm.mlir.constant(false) : i1
    %68 = llvm.mlir.constant(4096 : i64) : i64
    %69 = llvm.mlir.constant(4096 : index) : i64
    %70 = llvm.mlir.constant(1 : index) : i64
    %71 = llvm.mlir.constant(32 : index) : i64
    %72 = llvm.mlir.constant(0 : index) : i64
    %73 = llvm.mlir.null : !llvm.ptr
    %74 = llvm.getelementptr %73[16] : (!llvm.ptr) -> !llvm.ptr, i64
    %75 = llvm.ptrtoint %74 : !llvm.ptr to i64
    %76 = llvm.call @malloc(%75) : (i64) -> !llvm.ptr
    %77 = llvm.mlir.undef : !llvm.struct<(ptr, ptr, i64, array<1 x i64>, array<1 x i64>)>
    %78 = llvm.insertvalue %76, %77[0] : !llvm.struct<(ptr, ptr, i64, array<1 x i64>, array<1 x i64>)> 
    %79 = llvm.insertvalue %76, %78[1] : !llvm.struct<(ptr, ptr, i64, array<1 x i64>, array<1 x i64>)> 
    %80 = llvm.insertvalue %56, %79[2] : !llvm.struct<(ptr, ptr, i64, array<1 x i64>, array<1 x i64>)> 
    %81 = llvm.insertvalue %58, %80[3, 0] : !llvm.struct<(ptr, ptr, i64, array<1 x i64>, array<1 x i64>)> 
    %82 = llvm.insertvalue %57, %81[4, 0] : !llvm.struct<(ptr, ptr, i64, array<1 x i64>, array<1 x i64>)> 
    %83 = llvm.mlir.null : !llvm.ptr
    %84 = llvm.getelementptr %83[16] : (!llvm.ptr) -> !llvm.ptr, i64
    %85 = llvm.ptrtoint %84 : !llvm.ptr to i64
    %86 = llvm.call @malloc(%85) : (i64) -> !llvm.ptr
    %87 = llvm.mlir.undef : !llvm.struct<(ptr, ptr, i64, array<1 x i64>, array<1 x i64>)>
    %88 = llvm.insertvalue %86, %87[0] : !llvm.struct<(ptr, ptr, i64, array<1 x i64>, array<1 x i64>)> 
    %89 = llvm.insertvalue %86, %88[1] : !llvm.struct<(ptr, ptr, i64, array<1 x i64>, array<1 x i64>)> 
    %90 = llvm.insertvalue %56, %89[2] : !llvm.struct<(ptr, ptr, i64, array<1 x i64>, array<1 x i64>)> 
    %91 = llvm.insertvalue %58, %90[3, 0] : !llvm.struct<(ptr, ptr, i64, array<1 x i64>, array<1 x i64>)> 
    %92 = llvm.insertvalue %57, %91[4, 0] : !llvm.struct<(ptr, ptr, i64, array<1 x i64>, array<1 x i64>)> 
    %93 = llvm.mlir.null : !llvm.ptr
    %94 = llvm.getelementptr %93[16] : (!llvm.ptr) -> !llvm.ptr, i64
    %95 = llvm.ptrtoint %94 : !llvm.ptr to i64
    %96 = llvm.call @malloc(%95) : (i64) -> !llvm.ptr
    %97 = llvm.mlir.undef : !llvm.struct<(ptr, ptr, i64, array<1 x i64>, array<1 x i64>)>
    %98 = llvm.insertvalue %96, %97[0] : !llvm.struct<(ptr, ptr, i64, array<1 x i64>, array<1 x i64>)> 
    %99 = llvm.insertvalue %96, %98[1] : !llvm.struct<(ptr, ptr, i64, array<1 x i64>, array<1 x i64>)> 
    %100 = llvm.insertvalue %56, %99[2] : !llvm.struct<(ptr, ptr, i64, array<1 x i64>, array<1 x i64>)> 
    %101 = llvm.insertvalue %58, %100[3, 0] : !llvm.struct<(ptr, ptr, i64, array<1 x i64>, array<1 x i64>)> 
    %102 = llvm.insertvalue %57, %101[4, 0] : !llvm.struct<(ptr, ptr, i64, array<1 x i64>, array<1 x i64>)> 
    %103 = llvm.mlir.null : !llvm.ptr
    %104 = llvm.getelementptr %103[16] : (!llvm.ptr) -> !llvm.ptr, i64
    %105 = llvm.ptrtoint %104 : !llvm.ptr to i64
    %106 = llvm.call @malloc(%105) : (i64) -> !llvm.ptr
    %107 = llvm.mlir.undef : !llvm.struct<(ptr, ptr, i64, array<1 x i64>, array<1 x i64>)>
    %108 = llvm.insertvalue %106, %107[0] : !llvm.struct<(ptr, ptr, i64, array<1 x i64>, array<1 x i64>)> 
    %109 = llvm.insertvalue %106, %108[1] : !llvm.struct<(ptr, ptr, i64, array<1 x i64>, array<1 x i64>)> 
    %110 = llvm.insertvalue %56, %109[2] : !llvm.struct<(ptr, ptr, i64, array<1 x i64>, array<1 x i64>)> 
    %111 = llvm.insertvalue %58, %110[3, 0] : !llvm.struct<(ptr, ptr, i64, array<1 x i64>, array<1 x i64>)> 
    %112 = llvm.insertvalue %57, %111[4, 0] : !llvm.struct<(ptr, ptr, i64, array<1 x i64>, array<1 x i64>)> 
    %113 = llvm.mlir.null : !llvm.ptr
    %114 = llvm.getelementptr %113[16] : (!llvm.ptr) -> !llvm.ptr, f32
    %115 = llvm.ptrtoint %114 : !llvm.ptr to i64
    %116 = llvm.call @malloc(%115) : (i64) -> !llvm.ptr
    %117 = llvm.mlir.undef : !llvm.struct<(ptr, ptr, i64, array<1 x i64>, array<1 x i64>)>
    %118 = llvm.insertvalue %116, %117[0] : !llvm.struct<(ptr, ptr, i64, array<1 x i64>, array<1 x i64>)> 
    %119 = llvm.insertvalue %116, %118[1] : !llvm.struct<(ptr, ptr, i64, array<1 x i64>, array<1 x i64>)> 
    %120 = llvm.insertvalue %56, %119[2] : !llvm.struct<(ptr, ptr, i64, array<1 x i64>, array<1 x i64>)> 
    %121 = llvm.insertvalue %58, %120[3, 0] : !llvm.struct<(ptr, ptr, i64, array<1 x i64>, array<1 x i64>)> 
    %122 = llvm.insertvalue %57, %121[4, 0] : !llvm.struct<(ptr, ptr, i64, array<1 x i64>, array<1 x i64>)> 
    %123 = llvm.mlir.undef : !llvm.struct<(array<3 x i64>, array<5 x i64>)>
    %124 = llvm.insertvalue %62, %123[1, 0] : !llvm.struct<(array<3 x i64>, array<5 x i64>)> 
    %125 = llvm.insertvalue %62, %124[1, 1] : !llvm.struct<(array<3 x i64>, array<5 x i64>)> 
    %126 = llvm.insertvalue %62, %125[1, 2] : !llvm.struct<(array<3 x i64>, array<5 x i64>)> 
    %127 = llvm.insertvalue %62, %126[1, 3] : !llvm.struct<(array<3 x i64>, array<5 x i64>)> 
    %128 = llvm.insertvalue %62, %127[1, 4] : !llvm.struct<(array<3 x i64>, array<5 x i64>)> 
    %129 = llvm.insertvalue %65, %128[0, 0] : !llvm.struct<(array<3 x i64>, array<5 x i64>)> 
    %130 = llvm.getelementptr %76[%72] : (!llvm.ptr, i64) -> !llvm.ptr, i64
    llvm.store %72, %130 : i64, !llvm.ptr
    %131 = llvm.insertvalue %63, %129[1, 0] : !llvm.struct<(array<3 x i64>, array<5 x i64>)> 
    %132 = llvm.insertvalue %65, %131[0, 1] : !llvm.struct<(array<3 x i64>, array<5 x i64>)> 
    %133 = llvm.getelementptr %96[%72] : (!llvm.ptr, i64) -> !llvm.ptr, i64
    llvm.store %72, %133 : i64, !llvm.ptr
    %134 = llvm.insertvalue %63, %132[1, 2] : !llvm.struct<(array<3 x i64>, array<5 x i64>)> 
    %135 = llvm.insertvalue %66, %134[0, 2] : !llvm.struct<(array<3 x i64>, array<5 x i64>)> 
    %136 = llvm.getelementptr %76[%70] : (!llvm.ptr, i64) -> !llvm.ptr, i64
    llvm.store %72, %136 : i64, !llvm.ptr
    %137 = llvm.insertvalue %64, %135[1, 0] : !llvm.struct<(array<3 x i64>, array<5 x i64>)> 
    %138 = llvm.mlir.null : !llvm.ptr
    %139 = llvm.getelementptr %138[32] : (!llvm.ptr) -> !llvm.ptr, f32
    %140 = llvm.ptrtoint %139 : !llvm.ptr to i64
    %141 = llvm.call @malloc(%140) : (i64) -> !llvm.ptr
    %142 = llvm.mlir.null : !llvm.ptr
    %143 = llvm.getelementptr %142[32] : (!llvm.ptr) -> !llvm.ptr, i1
    %144 = llvm.ptrtoint %143 : !llvm.ptr to i64
    %145 = llvm.call @malloc(%144) : (i64) -> !llvm.ptr
    %146 = llvm.mlir.null : !llvm.ptr
    %147 = llvm.getelementptr %146[32] : (!llvm.ptr) -> !llvm.ptr, i64
    %148 = llvm.ptrtoint %147 : !llvm.ptr to i64
    %149 = llvm.call @malloc(%148) : (i64) -> !llvm.ptr
    %150 = llvm.mlir.undef : !llvm.struct<(ptr, ptr, i64, array<1 x i64>, array<1 x i64>)>
    %151 = llvm.insertvalue %149, %150[0] : !llvm.struct<(ptr, ptr, i64, array<1 x i64>, array<1 x i64>)> 
    %152 = llvm.insertvalue %149, %151[1] : !llvm.struct<(ptr, ptr, i64, array<1 x i64>, array<1 x i64>)> 
    %153 = llvm.insertvalue %56, %152[2] : !llvm.struct<(ptr, ptr, i64, array<1 x i64>, array<1 x i64>)> 
    %154 = llvm.insertvalue %55, %153[3, 0] : !llvm.struct<(ptr, ptr, i64, array<1 x i64>, array<1 x i64>)> 
    %155 = llvm.insertvalue %57, %154[4, 0] : !llvm.struct<(ptr, ptr, i64, array<1 x i64>, array<1 x i64>)> 
    llvm.br ^bb1(%72 : i64)
  ^bb1(%156: i64):  // 2 preds: ^bb0, ^bb2
    %157 = llvm.icmp "slt" %156, %71 : i64
    llvm.cond_br %157, ^bb2, ^bb3
  ^bb2:  // pred: ^bb1
    %158 = llvm.getelementptr %141[%156] : (!llvm.ptr, i64) -> !llvm.ptr, f32
    llvm.store %60, %158 : f32, !llvm.ptr
    %159 = llvm.add %156, %70  : i64
    llvm.br ^bb1(%159 : i64)
  ^bb3:  // pred: ^bb1
    llvm.br ^bb4(%72 : i64)
  ^bb4(%160: i64):  // 2 preds: ^bb3, ^bb5
    %161 = llvm.icmp "slt" %160, %71 : i64
    llvm.cond_br %161, ^bb5, ^bb6
  ^bb5:  // pred: ^bb4
    %162 = llvm.getelementptr %145[%160] : (!llvm.ptr, i64) -> !llvm.ptr, i1
    llvm.store %67, %162 : i1, !llvm.ptr
    %163 = llvm.add %160, %70  : i64
    llvm.br ^bb4(%163 : i64)
  ^bb6:  // pred: ^bb4
    %164 = llvm.extractvalue %5[1] : !llvm.struct<(ptr, ptr, i64, array<1 x i64>, array<1 x i64>)> 
    %165 = llvm.getelementptr %164[%72] : (!llvm.ptr, i64) -> !llvm.ptr, i64
    %166 = llvm.load %165 : !llvm.ptr -> i64
    %167 = llvm.extractvalue %5[1] : !llvm.struct<(ptr, ptr, i64, array<1 x i64>, array<1 x i64>)> 
    %168 = llvm.getelementptr %167[%70] : (!llvm.ptr, i64) -> !llvm.ptr, i64
    %169 = llvm.load %168 : !llvm.ptr -> i64
    llvm.br ^bb7(%166, %82, %92, %102, %112, %122, %137 : i64, !llvm.struct<(ptr, ptr, i64, array<1 x i64>, array<1 x i64>)>, !llvm.struct<(ptr, ptr, i64, array<1 x i64>, array<1 x i64>)>, !llvm.struct<(ptr, ptr, i64, array<1 x i64>, array<1 x i64>)>, !llvm.struct<(ptr, ptr, i64, array<1 x i64>, array<1 x i64>)>, !llvm.struct<(ptr, ptr, i64, array<1 x i64>, array<1 x i64>)>, !llvm.struct<(array<3 x i64>, array<5 x i64>)>)
  ^bb7(%170: i64, %171: !llvm.struct<(ptr, ptr, i64, array<1 x i64>, array<1 x i64>)>, %172: !llvm.struct<(ptr, ptr, i64, array<1 x i64>, array<1 x i64>)>, %173: !llvm.struct<(ptr, ptr, i64, array<1 x i64>, array<1 x i64>)>, %174: !llvm.struct<(ptr, ptr, i64, array<1 x i64>, array<1 x i64>)>, %175: !llvm.struct<(ptr, ptr, i64, array<1 x i64>, array<1 x i64>)>, %176: !llvm.struct<(array<3 x i64>, array<5 x i64>)>):  // 2 preds: ^bb6, ^bb24
    %177 = llvm.icmp "slt" %170, %169 : i64
    llvm.cond_br %177, ^bb8, ^bb25
  ^bb8:  // pred: ^bb7
    %178 = llvm.extractvalue %11[1] : !llvm.struct<(ptr, ptr, i64, array<1 x i64>, array<1 x i64>)> 
    %179 = llvm.getelementptr %178[%170] : (!llvm.ptr, i64) -> !llvm.ptr, i64
    %180 = llvm.load %179 : !llvm.ptr -> i64
    %181 = llvm.extractvalue %17[1] : !llvm.struct<(ptr, ptr, i64, array<1 x i64>, array<1 x i64>)> 
    %182 = llvm.getelementptr %181[%170] : (!llvm.ptr, i64) -> !llvm.ptr, i64
    %183 = llvm.load %182 : !llvm.ptr -> i64
    %184 = llvm.add %170, %70  : i64
    %185 = llvm.extractvalue %17[1] : !llvm.struct<(ptr, ptr, i64, array<1 x i64>, array<1 x i64>)> 
    %186 = llvm.getelementptr %185[%184] : (!llvm.ptr, i64) -> !llvm.ptr, i64
    %187 = llvm.load %186 : !llvm.ptr -> i64
    llvm.br ^bb9(%183, %171, %172, %173, %174, %175, %176 : i64, !llvm.struct<(ptr, ptr, i64, array<1 x i64>, array<1 x i64>)>, !llvm.struct<(ptr, ptr, i64, array<1 x i64>, array<1 x i64>)>, !llvm.struct<(ptr, ptr, i64, array<1 x i64>, array<1 x i64>)>, !llvm.struct<(ptr, ptr, i64, array<1 x i64>, array<1 x i64>)>, !llvm.struct<(ptr, ptr, i64, array<1 x i64>, array<1 x i64>)>, !llvm.struct<(array<3 x i64>, array<5 x i64>)>)
  ^bb9(%188: i64, %189: !llvm.struct<(ptr, ptr, i64, array<1 x i64>, array<1 x i64>)>, %190: !llvm.struct<(ptr, ptr, i64, array<1 x i64>, array<1 x i64>)>, %191: !llvm.struct<(ptr, ptr, i64, array<1 x i64>, array<1 x i64>)>, %192: !llvm.struct<(ptr, ptr, i64, array<1 x i64>, array<1 x i64>)>, %193: !llvm.struct<(ptr, ptr, i64, array<1 x i64>, array<1 x i64>)>, %194: !llvm.struct<(array<3 x i64>, array<5 x i64>)>):  // 2 preds: ^bb8, ^bb23
    %195 = llvm.icmp "slt" %188, %187 : i64
    llvm.cond_br %195, ^bb10, ^bb24
  ^bb10:  // pred: ^bb9
    %196 = llvm.extractvalue %23[1] : !llvm.struct<(ptr, ptr, i64, array<1 x i64>, array<1 x i64>)> 
    %197 = llvm.getelementptr %196[%188] : (!llvm.ptr, i64) -> !llvm.ptr, i64
    %198 = llvm.load %197 : !llvm.ptr -> i64
    %199 = llvm.extractvalue %29[1] : !llvm.struct<(ptr, ptr, i64, array<1 x i64>, array<1 x i64>)> 
    %200 = llvm.getelementptr %199[%188] : (!llvm.ptr, i64) -> !llvm.ptr, i64
    %201 = llvm.load %200 : !llvm.ptr -> i64
    %202 = llvm.add %188, %70  : i64
    %203 = llvm.extractvalue %29[1] : !llvm.struct<(ptr, ptr, i64, array<1 x i64>, array<1 x i64>)> 
    %204 = llvm.getelementptr %203[%202] : (!llvm.ptr, i64) -> !llvm.ptr, i64
    %205 = llvm.load %204 : !llvm.ptr -> i64
    llvm.br ^bb11(%201, %72 : i64, i64)
  ^bb11(%206: i64, %207: i64):  // 2 preds: ^bb10, ^bb19
    %208 = llvm.icmp "slt" %206, %205 : i64
    llvm.cond_br %208, ^bb12, ^bb20
  ^bb12:  // pred: ^bb11
    %209 = llvm.extractvalue %35[1] : !llvm.struct<(ptr, ptr, i64, array<1 x i64>, array<1 x i64>)> 
    %210 = llvm.getelementptr %209[%206] : (!llvm.ptr, i64) -> !llvm.ptr, i64
    %211 = llvm.load %210 : !llvm.ptr -> i64
    %212 = llvm.extractvalue %41[1] : !llvm.struct<(ptr, ptr, i64, array<1 x i64>, array<1 x i64>)> 
    %213 = llvm.getelementptr %212[%206] : (!llvm.ptr, i64) -> !llvm.ptr, f32
    %214 = llvm.load %213 : !llvm.ptr -> f32
    llvm.br ^bb13(%72, %207 : i64, i64)
  ^bb13(%215: i64, %216: i64):  // 2 preds: ^bb12, ^bb18
    %217 = llvm.icmp "slt" %215, %71 : i64
    llvm.cond_br %217, ^bb14, ^bb19
  ^bb14:  // pred: ^bb13
    %218 = llvm.mul %211, %71  : i64
    %219 = llvm.add %218, %215  : i64
    %220 = llvm.getelementptr %141[%215] : (!llvm.ptr, i64) -> !llvm.ptr, f32
    %221 = llvm.load %220 : !llvm.ptr -> f32
    %222 = llvm.extractvalue %47[1] : !llvm.struct<(ptr, ptr, i64, array<1 x i64>, array<1 x i64>)> 
    %223 = llvm.getelementptr %222[%219] : (!llvm.ptr, i64) -> !llvm.ptr, f32
    %224 = llvm.load %223 : !llvm.ptr -> f32
    %225 = llvm.fmul %214, %224  : f32
    %226 = llvm.fadd %221, %225  : f32
    %227 = llvm.getelementptr %145[%215] : (!llvm.ptr, i64) -> !llvm.ptr, i1
    %228 = llvm.load %227 : !llvm.ptr -> i1
    %229 = llvm.icmp "eq" %228, %67 : i1
    llvm.cond_br %229, ^bb15, ^bb16
  ^bb15:  // pred: ^bb14
    %230 = llvm.getelementptr %145[%215] : (!llvm.ptr, i64) -> !llvm.ptr, i1
    llvm.store %59, %230 : i1, !llvm.ptr
    %231 = llvm.getelementptr %149[%216] : (!llvm.ptr, i64) -> !llvm.ptr, i64
    llvm.store %215, %231 : i64, !llvm.ptr
    %232 = llvm.add %216, %70  : i64
    llvm.br ^bb17(%232 : i64)
  ^bb16:  // pred: ^bb14
    llvm.br ^bb17(%216 : i64)
  ^bb17(%233: i64):  // 2 preds: ^bb15, ^bb16
    llvm.br ^bb18
  ^bb18:  // pred: ^bb17
    %234 = llvm.getelementptr %141[%215] : (!llvm.ptr, i64) -> !llvm.ptr, f32
    llvm.store %226, %234 : f32, !llvm.ptr
    %235 = llvm.add %215, %70  : i64
    llvm.br ^bb13(%235, %233 : i64, i64)
  ^bb19:  // pred: ^bb13
    %236 = llvm.add %206, %70  : i64
    llvm.br ^bb11(%236, %216 : i64, i64)
  ^bb20:  // pred: ^bb11
    %237 = "llvm.intr.ctlz"(%207) <{is_zero_poison = false}> : (i64) -> i64
    %238 = llvm.sub %61, %237  : i64
    llvm.call @_sparse_hybrid_qsort_1_index(%72, %207, %149, %149, %56, %55, %57, %238) : (i64, i64, !llvm.ptr, !llvm.ptr, i64, i64, i64, i64) -> ()
    llvm.br ^bb21(%72, %189, %190, %191, %192, %193, %194 : i64, !llvm.struct<(ptr, ptr, i64, array<1 x i64>, array<1 x i64>)>, !llvm.struct<(ptr, ptr, i64, array<1 x i64>, array<1 x i64>)>, !llvm.struct<(ptr, ptr, i64, array<1 x i64>, array<1 x i64>)>, !llvm.struct<(ptr, ptr, i64, array<1 x i64>, array<1 x i64>)>, !llvm.struct<(ptr, ptr, i64, array<1 x i64>, array<1 x i64>)>, !llvm.struct<(array<3 x i64>, array<5 x i64>)>)
  ^bb21(%239: i64, %240: !llvm.struct<(ptr, ptr, i64, array<1 x i64>, array<1 x i64>)>, %241: !llvm.struct<(ptr, ptr, i64, array<1 x i64>, array<1 x i64>)>, %242: !llvm.struct<(ptr, ptr, i64, array<1 x i64>, array<1 x i64>)>, %243: !llvm.struct<(ptr, ptr, i64, array<1 x i64>, array<1 x i64>)>, %244: !llvm.struct<(ptr, ptr, i64, array<1 x i64>, array<1 x i64>)>, %245: !llvm.struct<(array<3 x i64>, array<5 x i64>)>):  // 2 preds: ^bb20, ^bb22
    %246 = llvm.icmp "slt" %239, %207 : i64
    llvm.cond_br %246, ^bb22, ^bb23
  ^bb22:  // pred: ^bb21
    %247 = llvm.getelementptr %149[%239] : (!llvm.ptr, i64) -> !llvm.ptr, i64
    %248 = llvm.load %247 : !llvm.ptr -> i64
    %249 = llvm.getelementptr %141[%248] : (!llvm.ptr, i64) -> !llvm.ptr, f32
    %250 = llvm.load %249 : !llvm.ptr -> f32
    %251 = llvm.extractvalue %240[0] : !llvm.struct<(ptr, ptr, i64, array<1 x i64>, array<1 x i64>)> 
    %252 = llvm.extractvalue %240[1] : !llvm.struct<(ptr, ptr, i64, array<1 x i64>, array<1 x i64>)> 
    %253 = llvm.extractvalue %240[2] : !llvm.struct<(ptr, ptr, i64, array<1 x i64>, array<1 x i64>)> 
    %254 = llvm.extractvalue %240[3, 0] : !llvm.struct<(ptr, ptr, i64, array<1 x i64>, array<1 x i64>)> 
    %255 = llvm.extractvalue %240[4, 0] : !llvm.struct<(ptr, ptr, i64, array<1 x i64>, array<1 x i64>)> 
    %256 = llvm.extractvalue %241[0] : !llvm.struct<(ptr, ptr, i64, array<1 x i64>, array<1 x i64>)> 
    %257 = llvm.extractvalue %241[1] : !llvm.struct<(ptr, ptr, i64, array<1 x i64>, array<1 x i64>)> 
    %258 = llvm.extractvalue %241[2] : !llvm.struct<(ptr, ptr, i64, array<1 x i64>, array<1 x i64>)> 
    %259 = llvm.extractvalue %241[3, 0] : !llvm.struct<(ptr, ptr, i64, array<1 x i64>, array<1 x i64>)> 
    %260 = llvm.extractvalue %241[4, 0] : !llvm.struct<(ptr, ptr, i64, array<1 x i64>, array<1 x i64>)> 
    %261 = llvm.extractvalue %242[0] : !llvm.struct<(ptr, ptr, i64, array<1 x i64>, array<1 x i64>)> 
    %262 = llvm.extractvalue %242[1] : !llvm.struct<(ptr, ptr, i64, array<1 x i64>, array<1 x i64>)> 
    %263 = llvm.extractvalue %242[2] : !llvm.struct<(ptr, ptr, i64, array<1 x i64>, array<1 x i64>)> 
    %264 = llvm.extractvalue %242[3, 0] : !llvm.struct<(ptr, ptr, i64, array<1 x i64>, array<1 x i64>)> 
    %265 = llvm.extractvalue %242[4, 0] : !llvm.struct<(ptr, ptr, i64, array<1 x i64>, array<1 x i64>)> 
    %266 = llvm.extractvalue %243[0] : !llvm.struct<(ptr, ptr, i64, array<1 x i64>, array<1 x i64>)> 
    %267 = llvm.extractvalue %243[1] : !llvm.struct<(ptr, ptr, i64, array<1 x i64>, array<1 x i64>)> 
    %268 = llvm.extractvalue %243[2] : !llvm.struct<(ptr, ptr, i64, array<1 x i64>, array<1 x i64>)> 
    %269 = llvm.extractvalue %243[3, 0] : !llvm.struct<(ptr, ptr, i64, array<1 x i64>, array<1 x i64>)> 
    %270 = llvm.extractvalue %243[4, 0] : !llvm.struct<(ptr, ptr, i64, array<1 x i64>, array<1 x i64>)> 
    %271 = llvm.extractvalue %244[0] : !llvm.struct<(ptr, ptr, i64, array<1 x i64>, array<1 x i64>)> 
    %272 = llvm.extractvalue %244[1] : !llvm.struct<(ptr, ptr, i64, array<1 x i64>, array<1 x i64>)> 
    %273 = llvm.extractvalue %244[2] : !llvm.struct<(ptr, ptr, i64, array<1 x i64>, array<1 x i64>)> 
    %274 = llvm.extractvalue %244[3, 0] : !llvm.struct<(ptr, ptr, i64, array<1 x i64>, array<1 x i64>)> 
    %275 = llvm.extractvalue %244[4, 0] : !llvm.struct<(ptr, ptr, i64, array<1 x i64>, array<1 x i64>)> 
    %276 = llvm.call @_insert_compressed_compressed_dense_128_128_32_f32_0_0(%251, %252, %253, %254, %255, %256, %257, %258, %259, %260, %261, %262, %263, %264, %265, %266, %267, %268, %269, %270, %271, %272, %273, %274, %275, %245, %180, %198, %248, %250) : (!llvm.ptr, !llvm.ptr, i64, i64, i64, !llvm.ptr, !llvm.ptr, i64, i64, i64, !llvm.ptr, !llvm.ptr, i64, i64, i64, !llvm.ptr, !llvm.ptr, i64, i64, i64, !llvm.ptr, !llvm.ptr, i64, i64, i64, !llvm.struct<(array<3 x i64>, array<5 x i64>)>, i64, i64, i64, f32) -> !llvm.struct<(struct<(ptr, ptr, i64, array<1 x i64>, array<1 x i64>)>, struct<(ptr, ptr, i64, array<1 x i64>, array<1 x i64>)>, struct<(ptr, ptr, i64, array<1 x i64>, array<1 x i64>)>, struct<(ptr, ptr, i64, array<1 x i64>, array<1 x i64>)>, struct<(ptr, ptr, i64, array<1 x i64>, array<1 x i64>)>, struct<(array<3 x i64>, array<5 x i64>)>)>
    %277 = llvm.extractvalue %276[0] : !llvm.struct<(struct<(ptr, ptr, i64, array<1 x i64>, array<1 x i64>)>, struct<(ptr, ptr, i64, array<1 x i64>, array<1 x i64>)>, struct<(ptr, ptr, i64, array<1 x i64>, array<1 x i64>)>, struct<(ptr, ptr, i64, array<1 x i64>, array<1 x i64>)>, struct<(ptr, ptr, i64, array<1 x i64>, array<1 x i64>)>, struct<(array<3 x i64>, array<5 x i64>)>)> 
    %278 = llvm.extractvalue %276[1] : !llvm.struct<(struct<(ptr, ptr, i64, array<1 x i64>, array<1 x i64>)>, struct<(ptr, ptr, i64, array<1 x i64>, array<1 x i64>)>, struct<(ptr, ptr, i64, array<1 x i64>, array<1 x i64>)>, struct<(ptr, ptr, i64, array<1 x i64>, array<1 x i64>)>, struct<(ptr, ptr, i64, array<1 x i64>, array<1 x i64>)>, struct<(array<3 x i64>, array<5 x i64>)>)> 
    %279 = llvm.extractvalue %276[2] : !llvm.struct<(struct<(ptr, ptr, i64, array<1 x i64>, array<1 x i64>)>, struct<(ptr, ptr, i64, array<1 x i64>, array<1 x i64>)>, struct<(ptr, ptr, i64, array<1 x i64>, array<1 x i64>)>, struct<(ptr, ptr, i64, array<1 x i64>, array<1 x i64>)>, struct<(ptr, ptr, i64, array<1 x i64>, array<1 x i64>)>, struct<(array<3 x i64>, array<5 x i64>)>)> 
    %280 = llvm.extractvalue %276[3] : !llvm.struct<(struct<(ptr, ptr, i64, array<1 x i64>, array<1 x i64>)>, struct<(ptr, ptr, i64, array<1 x i64>, array<1 x i64>)>, struct<(ptr, ptr, i64, array<1 x i64>, array<1 x i64>)>, struct<(ptr, ptr, i64, array<1 x i64>, array<1 x i64>)>, struct<(ptr, ptr, i64, array<1 x i64>, array<1 x i64>)>, struct<(array<3 x i64>, array<5 x i64>)>)> 
    %281 = llvm.extractvalue %276[4] : !llvm.struct<(struct<(ptr, ptr, i64, array<1 x i64>, array<1 x i64>)>, struct<(ptr, ptr, i64, array<1 x i64>, array<1 x i64>)>, struct<(ptr, ptr, i64, array<1 x i64>, array<1 x i64>)>, struct<(ptr, ptr, i64, array<1 x i64>, array<1 x i64>)>, struct<(ptr, ptr, i64, array<1 x i64>, array<1 x i64>)>, struct<(array<3 x i64>, array<5 x i64>)>)> 
    %282 = llvm.extractvalue %276[5] : !llvm.struct<(struct<(ptr, ptr, i64, array<1 x i64>, array<1 x i64>)>, struct<(ptr, ptr, i64, array<1 x i64>, array<1 x i64>)>, struct<(ptr, ptr, i64, array<1 x i64>, array<1 x i64>)>, struct<(ptr, ptr, i64, array<1 x i64>, array<1 x i64>)>, struct<(ptr, ptr, i64, array<1 x i64>, array<1 x i64>)>, struct<(array<3 x i64>, array<5 x i64>)>)> 
    %283 = llvm.getelementptr %141[%248] : (!llvm.ptr, i64) -> !llvm.ptr, f32
    llvm.store %60, %283 : f32, !llvm.ptr
    %284 = llvm.getelementptr %145[%248] : (!llvm.ptr, i64) -> !llvm.ptr, i1
    llvm.store %67, %284 : i1, !llvm.ptr
    %285 = llvm.add %239, %70  : i64
    llvm.br ^bb21(%285, %277, %278, %279, %280, %281, %282 : i64, !llvm.struct<(ptr, ptr, i64, array<1 x i64>, array<1 x i64>)>, !llvm.struct<(ptr, ptr, i64, array<1 x i64>, array<1 x i64>)>, !llvm.struct<(ptr, ptr, i64, array<1 x i64>, array<1 x i64>)>, !llvm.struct<(ptr, ptr, i64, array<1 x i64>, array<1 x i64>)>, !llvm.struct<(ptr, ptr, i64, array<1 x i64>, array<1 x i64>)>, !llvm.struct<(array<3 x i64>, array<5 x i64>)>)
  ^bb23:  // pred: ^bb21
    %286 = llvm.add %188, %70  : i64
    llvm.br ^bb9(%286, %240, %241, %242, %243, %244, %245 : i64, !llvm.struct<(ptr, ptr, i64, array<1 x i64>, array<1 x i64>)>, !llvm.struct<(ptr, ptr, i64, array<1 x i64>, array<1 x i64>)>, !llvm.struct<(ptr, ptr, i64, array<1 x i64>, array<1 x i64>)>, !llvm.struct<(ptr, ptr, i64, array<1 x i64>, array<1 x i64>)>, !llvm.struct<(ptr, ptr, i64, array<1 x i64>, array<1 x i64>)>, !llvm.struct<(array<3 x i64>, array<5 x i64>)>)
  ^bb24:  // pred: ^bb9
    %287 = llvm.add %170, %70  : i64
    llvm.br ^bb7(%287, %189, %190, %191, %192, %193, %194 : i64, !llvm.struct<(ptr, ptr, i64, array<1 x i64>, array<1 x i64>)>, !llvm.struct<(ptr, ptr, i64, array<1 x i64>, array<1 x i64>)>, !llvm.struct<(ptr, ptr, i64, array<1 x i64>, array<1 x i64>)>, !llvm.struct<(ptr, ptr, i64, array<1 x i64>, array<1 x i64>)>, !llvm.struct<(ptr, ptr, i64, array<1 x i64>, array<1 x i64>)>, !llvm.struct<(array<3 x i64>, array<5 x i64>)>)
  ^bb25:  // pred: ^bb7
    llvm.call @free(%141) : (!llvm.ptr) -> ()
    llvm.call @free(%145) : (!llvm.ptr) -> ()
    llvm.call @free(%149) : (!llvm.ptr) -> ()
    %288 = llvm.extractvalue %176[1, 2] : !llvm.struct<(array<3 x i64>, array<5 x i64>)> 
    %289 = llvm.extractvalue %173[1] : !llvm.struct<(ptr, ptr, i64, array<1 x i64>, array<1 x i64>)> 
    %290 = llvm.getelementptr %289[%72] : (!llvm.ptr, i64) -> !llvm.ptr, i64
    %291 = llvm.load %290 : !llvm.ptr -> i64
    llvm.br ^bb26(%70, %291 : i64, i64)
  ^bb26(%292: i64, %293: i64):  // 2 preds: ^bb25, ^bb29
    %294 = llvm.icmp "slt" %292, %288 : i64
    llvm.cond_br %294, ^bb27, ^bb30
  ^bb27:  // pred: ^bb26
    %295 = llvm.extractvalue %173[1] : !llvm.struct<(ptr, ptr, i64, array<1 x i64>, array<1 x i64>)> 
    %296 = llvm.getelementptr %295[%292] : (!llvm.ptr, i64) -> !llvm.ptr, i64
    %297 = llvm.load %296 : !llvm.ptr -> i64
    %298 = llvm.icmp "eq" %297, %72 : i64
    %299 = llvm.select %298, %293, %297 : i1, i64
    llvm.cond_br %298, ^bb28, ^bb29
  ^bb28:  // pred: ^bb27
    %300 = llvm.extractvalue %173[1] : !llvm.struct<(ptr, ptr, i64, array<1 x i64>, array<1 x i64>)> 
    %301 = llvm.getelementptr %300[%292] : (!llvm.ptr, i64) -> !llvm.ptr, i64
    llvm.store %293, %301 : i64, !llvm.ptr
    llvm.br ^bb29
  ^bb29:  // 2 preds: ^bb27, ^bb28
    %302 = llvm.add %292, %70  : i64
    llvm.br ^bb26(%302, %299 : i64, i64)
  ^bb30:  // pred: ^bb26
    %303 = llvm.mlir.null : !llvm.ptr
    %304 = llvm.getelementptr %303[4096] : (!llvm.ptr) -> !llvm.ptr, f32
    %305 = llvm.ptrtoint %304 : !llvm.ptr to i64
    %306 = llvm.call @malloc(%305) : (i64) -> !llvm.ptr
    %307 = llvm.mlir.undef : !llvm.struct<(ptr, ptr, i64, array<1 x i64>, array<1 x i64>)>
    %308 = llvm.insertvalue %306, %307[0] : !llvm.struct<(ptr, ptr, i64, array<1 x i64>, array<1 x i64>)> 
    %309 = llvm.insertvalue %306, %308[1] : !llvm.struct<(ptr, ptr, i64, array<1 x i64>, array<1 x i64>)> 
    %310 = llvm.insertvalue %56, %309[2] : !llvm.struct<(ptr, ptr, i64, array<1 x i64>, array<1 x i64>)> 
    %311 = llvm.insertvalue %54, %310[3, 0] : !llvm.struct<(ptr, ptr, i64, array<1 x i64>, array<1 x i64>)> 
    %312 = llvm.insertvalue %57, %311[4, 0] : !llvm.struct<(ptr, ptr, i64, array<1 x i64>, array<1 x i64>)> 
    %313 = llvm.mlir.undef : !llvm.struct<(array<2 x i64>, array<1 x i64>)>
    %314 = llvm.insertvalue %62, %313[1, 0] : !llvm.struct<(array<2 x i64>, array<1 x i64>)> 
    %315 = llvm.insertvalue %65, %314[0, 0] : !llvm.struct<(array<2 x i64>, array<1 x i64>)> 
    %316 = llvm.insertvalue %66, %315[0, 1] : !llvm.struct<(array<2 x i64>, array<1 x i64>)> 
    llvm.br ^bb31(%72 : i64)
  ^bb31(%317: i64):  // 2 preds: ^bb30, ^bb32
    %318 = llvm.icmp "slt" %317, %69 : i64
    llvm.cond_br %318, ^bb32, ^bb33
  ^bb32:  // pred: ^bb31
    %319 = llvm.getelementptr %306[%317] : (!llvm.ptr, i64) -> !llvm.ptr, f32
    llvm.store %60, %319 : f32, !llvm.ptr
    %320 = llvm.add %317, %70  : i64
    llvm.br ^bb31(%320 : i64)
  ^bb33:  // pred: ^bb31
    %321 = llvm.insertvalue %68, %316[1, 0] : !llvm.struct<(array<2 x i64>, array<1 x i64>)> 
    %322 = llvm.extractvalue %171[1] : !llvm.struct<(ptr, ptr, i64, array<1 x i64>, array<1 x i64>)> 
    %323 = llvm.getelementptr %322[%72] : (!llvm.ptr, i64) -> !llvm.ptr, i64
    %324 = llvm.load %323 : !llvm.ptr -> i64
    %325 = llvm.extractvalue %171[1] : !llvm.struct<(ptr, ptr, i64, array<1 x i64>, array<1 x i64>)> 
    %326 = llvm.getelementptr %325[%70] : (!llvm.ptr, i64) -> !llvm.ptr, i64
    %327 = llvm.load %326 : !llvm.ptr -> i64
    omp.parallel   {
      omp.wsloop   for  (%arg48) : i64 = (%324) to (%327) step (%70) {
        %331 = llvm.extractvalue %172[1] : !llvm.struct<(ptr, ptr, i64, array<1 x i64>, array<1 x i64>)> 
        %332 = llvm.getelementptr %331[%arg48] : (!llvm.ptr, i64) -> !llvm.ptr, i64
        %333 = llvm.load %332 : !llvm.ptr -> i64
        %334 = llvm.extractvalue %173[1] : !llvm.struct<(ptr, ptr, i64, array<1 x i64>, array<1 x i64>)> 
        %335 = llvm.getelementptr %334[%arg48] : (!llvm.ptr, i64) -> !llvm.ptr, i64
        %336 = llvm.load %335 : !llvm.ptr -> i64
        %337 = llvm.add %arg48, %70  : i64
        %338 = llvm.extractvalue %173[1] : !llvm.struct<(ptr, ptr, i64, array<1 x i64>, array<1 x i64>)> 
        %339 = llvm.getelementptr %338[%337] : (!llvm.ptr, i64) -> !llvm.ptr, i64
        %340 = llvm.load %339 : !llvm.ptr -> i64
        omp.parallel   {
          omp.wsloop   for  (%arg49) : i64 = (%336) to (%340) step (%70) {
            %341 = llvm.extractvalue %174[1] : !llvm.struct<(ptr, ptr, i64, array<1 x i64>, array<1 x i64>)> 
            %342 = llvm.getelementptr %341[%arg49] : (!llvm.ptr, i64) -> !llvm.ptr, i64
            %343 = llvm.load %342 : !llvm.ptr -> i64
            omp.parallel   {
              omp.wsloop   for  (%arg50) : i64 = (%72) to (%71) step (%70) {
                %344 = llvm.mul %arg49, %71  : i64
                %345 = llvm.add %344, %arg50  : i64
                %346 = llvm.mul %343, %71  : i64
                %347 = llvm.add %346, %arg50  : i64
                %348 = llvm.mul %333, %71  : i64
                %349 = llvm.add %348, %arg50  : i64
                %350 = llvm.getelementptr %306[%349] : (!llvm.ptr, i64) -> !llvm.ptr, f32
                %351 = llvm.load %350 : !llvm.ptr -> f32
                %352 = llvm.extractvalue %175[1] : !llvm.struct<(ptr, ptr, i64, array<1 x i64>, array<1 x i64>)> 
                %353 = llvm.getelementptr %352[%345] : (!llvm.ptr, i64) -> !llvm.ptr, f32
                %354 = llvm.load %353 : !llvm.ptr -> f32
                %355 = llvm.extractvalue %53[1] : !llvm.struct<(ptr, ptr, i64, array<1 x i64>, array<1 x i64>)> 
                %356 = llvm.getelementptr %355[%347] : (!llvm.ptr, i64) -> !llvm.ptr, f32
                %357 = llvm.load %356 : !llvm.ptr -> f32
                %358 = llvm.fmul %354, %357  : f32
                %359 = llvm.fadd %351, %358  : f32
                %360 = llvm.getelementptr %306[%349] : (!llvm.ptr, i64) -> !llvm.ptr, f32
                llvm.store %359, %360 : f32, !llvm.ptr
                omp.yield
              }
              omp.terminator
            }
            omp.yield
          }
          omp.terminator
        }
        omp.yield
      }
      omp.terminator
    }
    %328 = llvm.mlir.undef : !llvm.struct<(struct<(ptr, ptr, i64, array<1 x i64>, array<1 x i64>)>, struct<(array<2 x i64>, array<1 x i64>)>)>
    %329 = llvm.insertvalue %312, %328[0] : !llvm.struct<(struct<(ptr, ptr, i64, array<1 x i64>, array<1 x i64>)>, struct<(array<2 x i64>, array<1 x i64>)>)> 
    %330 = llvm.insertvalue %321, %329[1] : !llvm.struct<(struct<(ptr, ptr, i64, array<1 x i64>, array<1 x i64>)>, struct<(array<2 x i64>, array<1 x i64>)>)> 
    llvm.return %330 : !llvm.struct<(struct<(ptr, ptr, i64, array<1 x i64>, array<1 x i64>)>, struct<(array<2 x i64>, array<1 x i64>)>)>
  }
  llvm.func @_mlir_ciface_MTTKRP.A.0.main(%arg0: !llvm.ptr, %arg1: !llvm.ptr, %arg2: !llvm.ptr, %arg3: !llvm.ptr, %arg4: !llvm.ptr, %arg5: !llvm.ptr, %arg6: !llvm.ptr, %arg7: !llvm.ptr, %arg8: !llvm.struct<(array<3 x i64>, array<7 x i64>)>, %arg9: !llvm.ptr, %arg10: !llvm.struct<(array<2 x i64>, array<1 x i64>)>, %arg11: !llvm.ptr, %arg12: !llvm.struct<(array<2 x i64>, array<1 x i64>)>) attributes {llvm.emit_c_interface} {
    %0 = llvm.load %arg1 : !llvm.ptr -> !llvm.struct<(ptr, ptr, i64, array<1 x i64>, array<1 x i64>)>
    %1 = llvm.extractvalue %0[0] : !llvm.struct<(ptr, ptr, i64, array<1 x i64>, array<1 x i64>)> 
    %2 = llvm.extractvalue %0[1] : !llvm.struct<(ptr, ptr, i64, array<1 x i64>, array<1 x i64>)> 
    %3 = llvm.extractvalue %0[2] : !llvm.struct<(ptr, ptr, i64, array<1 x i64>, array<1 x i64>)> 
    %4 = llvm.extractvalue %0[3, 0] : !llvm.struct<(ptr, ptr, i64, array<1 x i64>, array<1 x i64>)> 
    %5 = llvm.extractvalue %0[4, 0] : !llvm.struct<(ptr, ptr, i64, array<1 x i64>, array<1 x i64>)> 
    %6 = llvm.load %arg2 : !llvm.ptr -> !llvm.struct<(ptr, ptr, i64, array<1 x i64>, array<1 x i64>)>
    %7 = llvm.extractvalue %6[0] : !llvm.struct<(ptr, ptr, i64, array<1 x i64>, array<1 x i64>)> 
    %8 = llvm.extractvalue %6[1] : !llvm.struct<(ptr, ptr, i64, array<1 x i64>, array<1 x i64>)> 
    %9 = llvm.extractvalue %6[2] : !llvm.struct<(ptr, ptr, i64, array<1 x i64>, array<1 x i64>)> 
    %10 = llvm.extractvalue %6[3, 0] : !llvm.struct<(ptr, ptr, i64, array<1 x i64>, array<1 x i64>)> 
    %11 = llvm.extractvalue %6[4, 0] : !llvm.struct<(ptr, ptr, i64, array<1 x i64>, array<1 x i64>)> 
    %12 = llvm.load %arg3 : !llvm.ptr -> !llvm.struct<(ptr, ptr, i64, array<1 x i64>, array<1 x i64>)>
    %13 = llvm.extractvalue %12[0] : !llvm.struct<(ptr, ptr, i64, array<1 x i64>, array<1 x i64>)> 
    %14 = llvm.extractvalue %12[1] : !llvm.struct<(ptr, ptr, i64, array<1 x i64>, array<1 x i64>)> 
    %15 = llvm.extractvalue %12[2] : !llvm.struct<(ptr, ptr, i64, array<1 x i64>, array<1 x i64>)> 
    %16 = llvm.extractvalue %12[3, 0] : !llvm.struct<(ptr, ptr, i64, array<1 x i64>, array<1 x i64>)> 
    %17 = llvm.extractvalue %12[4, 0] : !llvm.struct<(ptr, ptr, i64, array<1 x i64>, array<1 x i64>)> 
    %18 = llvm.load %arg4 : !llvm.ptr -> !llvm.struct<(ptr, ptr, i64, array<1 x i64>, array<1 x i64>)>
    %19 = llvm.extractvalue %18[0] : !llvm.struct<(ptr, ptr, i64, array<1 x i64>, array<1 x i64>)> 
    %20 = llvm.extractvalue %18[1] : !llvm.struct<(ptr, ptr, i64, array<1 x i64>, array<1 x i64>)> 
    %21 = llvm.extractvalue %18[2] : !llvm.struct<(ptr, ptr, i64, array<1 x i64>, array<1 x i64>)> 
    %22 = llvm.extractvalue %18[3, 0] : !llvm.struct<(ptr, ptr, i64, array<1 x i64>, array<1 x i64>)> 
    %23 = llvm.extractvalue %18[4, 0] : !llvm.struct<(ptr, ptr, i64, array<1 x i64>, array<1 x i64>)> 
    %24 = llvm.load %arg5 : !llvm.ptr -> !llvm.struct<(ptr, ptr, i64, array<1 x i64>, array<1 x i64>)>
    %25 = llvm.extractvalue %24[0] : !llvm.struct<(ptr, ptr, i64, array<1 x i64>, array<1 x i64>)> 
    %26 = llvm.extractvalue %24[1] : !llvm.struct<(ptr, ptr, i64, array<1 x i64>, array<1 x i64>)> 
    %27 = llvm.extractvalue %24[2] : !llvm.struct<(ptr, ptr, i64, array<1 x i64>, array<1 x i64>)> 
    %28 = llvm.extractvalue %24[3, 0] : !llvm.struct<(ptr, ptr, i64, array<1 x i64>, array<1 x i64>)> 
    %29 = llvm.extractvalue %24[4, 0] : !llvm.struct<(ptr, ptr, i64, array<1 x i64>, array<1 x i64>)> 
    %30 = llvm.load %arg6 : !llvm.ptr -> !llvm.struct<(ptr, ptr, i64, array<1 x i64>, array<1 x i64>)>
    %31 = llvm.extractvalue %30[0] : !llvm.struct<(ptr, ptr, i64, array<1 x i64>, array<1 x i64>)> 
    %32 = llvm.extractvalue %30[1] : !llvm.struct<(ptr, ptr, i64, array<1 x i64>, array<1 x i64>)> 
    %33 = llvm.extractvalue %30[2] : !llvm.struct<(ptr, ptr, i64, array<1 x i64>, array<1 x i64>)> 
    %34 = llvm.extractvalue %30[3, 0] : !llvm.struct<(ptr, ptr, i64, array<1 x i64>, array<1 x i64>)> 
    %35 = llvm.extractvalue %30[4, 0] : !llvm.struct<(ptr, ptr, i64, array<1 x i64>, array<1 x i64>)> 
    %36 = llvm.load %arg7 : !llvm.ptr -> !llvm.struct<(ptr, ptr, i64, array<1 x i64>, array<1 x i64>)>
    %37 = llvm.extractvalue %36[0] : !llvm.struct<(ptr, ptr, i64, array<1 x i64>, array<1 x i64>)> 
    %38 = llvm.extractvalue %36[1] : !llvm.struct<(ptr, ptr, i64, array<1 x i64>, array<1 x i64>)> 
    %39 = llvm.extractvalue %36[2] : !llvm.struct<(ptr, ptr, i64, array<1 x i64>, array<1 x i64>)> 
    %40 = llvm.extractvalue %36[3, 0] : !llvm.struct<(ptr, ptr, i64, array<1 x i64>, array<1 x i64>)> 
    %41 = llvm.extractvalue %36[4, 0] : !llvm.struct<(ptr, ptr, i64, array<1 x i64>, array<1 x i64>)> 
    %42 = llvm.load %arg9 : !llvm.ptr -> !llvm.struct<(ptr, ptr, i64, array<1 x i64>, array<1 x i64>)>
    %43 = llvm.extractvalue %42[0] : !llvm.struct<(ptr, ptr, i64, array<1 x i64>, array<1 x i64>)> 
    %44 = llvm.extractvalue %42[1] : !llvm.struct<(ptr, ptr, i64, array<1 x i64>, array<1 x i64>)> 
    %45 = llvm.extractvalue %42[2] : !llvm.struct<(ptr, ptr, i64, array<1 x i64>, array<1 x i64>)> 
    %46 = llvm.extractvalue %42[3, 0] : !llvm.struct<(ptr, ptr, i64, array<1 x i64>, array<1 x i64>)> 
    %47 = llvm.extractvalue %42[4, 0] : !llvm.struct<(ptr, ptr, i64, array<1 x i64>, array<1 x i64>)> 
    %48 = llvm.load %arg11 : !llvm.ptr -> !llvm.struct<(ptr, ptr, i64, array<1 x i64>, array<1 x i64>)>
    %49 = llvm.extractvalue %48[0] : !llvm.struct<(ptr, ptr, i64, array<1 x i64>, array<1 x i64>)> 
    %50 = llvm.extractvalue %48[1] : !llvm.struct<(ptr, ptr, i64, array<1 x i64>, array<1 x i64>)> 
    %51 = llvm.extractvalue %48[2] : !llvm.struct<(ptr, ptr, i64, array<1 x i64>, array<1 x i64>)> 
    %52 = llvm.extractvalue %48[3, 0] : !llvm.struct<(ptr, ptr, i64, array<1 x i64>, array<1 x i64>)> 
    %53 = llvm.extractvalue %48[4, 0] : !llvm.struct<(ptr, ptr, i64, array<1 x i64>, array<1 x i64>)> 
    %54 = llvm.call @MTTKRP.A.0.main(%1, %2, %3, %4, %5, %7, %8, %9, %10, %11, %13, %14, %15, %16, %17, %19, %20, %21, %22, %23, %25, %26, %27, %28, %29, %31, %32, %33, %34, %35, %37, %38, %39, %40, %41, %arg8, %43, %44, %45, %46, %47, %arg10, %49, %50, %51, %52, %53, %arg12) : (!llvm.ptr, !llvm.ptr, i64, i64, i64, !llvm.ptr, !llvm.ptr, i64, i64, i64, !llvm.ptr, !llvm.ptr, i64, i64, i64, !llvm.ptr, !llvm.ptr, i64, i64, i64, !llvm.ptr, !llvm.ptr, i64, i64, i64, !llvm.ptr, !llvm.ptr, i64, i64, i64, !llvm.ptr, !llvm.ptr, i64, i64, i64, !llvm.struct<(array<3 x i64>, array<7 x i64>)>, !llvm.ptr, !llvm.ptr, i64, i64, i64, !llvm.struct<(array<2 x i64>, array<1 x i64>)>, !llvm.ptr, !llvm.ptr, i64, i64, i64, !llvm.struct<(array<2 x i64>, array<1 x i64>)>) -> !llvm.struct<(struct<(ptr, ptr, i64, array<1 x i64>, array<1 x i64>)>, struct<(array<2 x i64>, array<1 x i64>)>)>
    llvm.store %54, %arg0 : !llvm.struct<(struct<(ptr, ptr, i64, array<1 x i64>, array<1 x i64>)>, struct<(array<2 x i64>, array<1 x i64>)>)>, !llvm.ptr
    llvm.return
  }
}


